meta_info_def {
  stripped_op_list {
    op {
      name: "Abs"
      input_arg {
        name: "x"
        type_attr: "T"
      }
      output_arg {
        name: "y"
        type_attr: "T"
      }
      attr {
        name: "T"
        type: "type"
        allowed_values {
          list {
            type: DT_BFLOAT16
            type: DT_HALF
            type: DT_FLOAT
            type: DT_DOUBLE
            type: DT_INT32
            type: DT_INT64
          }
        }
      }
    }
    op {
      name: "Add"
      input_arg {
        name: "x"
        type_attr: "T"
      }
      input_arg {
        name: "y"
        type_attr: "T"
      }
      output_arg {
        name: "z"
        type_attr: "T"
      }
      attr {
        name: "T"
        type: "type"
        allowed_values {
          list {
            type: DT_BFLOAT16
            type: DT_HALF
            type: DT_FLOAT
            type: DT_DOUBLE
            type: DT_UINT8
            type: DT_INT8
            type: DT_INT16
            type: DT_INT32
            type: DT_INT64
            type: DT_COMPLEX64
            type: DT_COMPLEX128
            type: DT_STRING
          }
        }
      }
    }
    op {
      name: "AddN"
      input_arg {
        name: "inputs"
        type_attr: "T"
        number_attr: "N"
      }
      output_arg {
        name: "sum"
        type_attr: "T"
      }
      attr {
        name: "N"
        type: "int"
        has_minimum: true
        minimum: 1
      }
      attr {
        name: "T"
        type: "type"
        allowed_values {
          list {
            type: DT_FLOAT
            type: DT_DOUBLE
            type: DT_INT32
            type: DT_UINT8
            type: DT_INT16
            type: DT_INT8
            type: DT_COMPLEX64
            type: DT_INT64
            type: DT_QINT8
            type: DT_QUINT8
            type: DT_QINT32
            type: DT_BFLOAT16
            type: DT_UINT16
            type: DT_COMPLEX128
            type: DT_HALF
            type: DT_UINT32
            type: DT_UINT64
            type: DT_VARIANT
          }
        }
      }
      is_aggregate: true
      is_commutative: true
    }
    op {
      name: "ApplyAdam"
      input_arg {
        name: "var"
        type_attr: "T"
        is_ref: true
      }
      input_arg {
        name: "m"
        type_attr: "T"
        is_ref: true
      }
      input_arg {
        name: "v"
        type_attr: "T"
        is_ref: true
      }
      input_arg {
        name: "beta1_power"
        type_attr: "T"
      }
      input_arg {
        name: "beta2_power"
        type_attr: "T"
      }
      input_arg {
        name: "lr"
        type_attr: "T"
      }
      input_arg {
        name: "beta1"
        type_attr: "T"
      }
      input_arg {
        name: "beta2"
        type_attr: "T"
      }
      input_arg {
        name: "epsilon"
        type_attr: "T"
      }
      input_arg {
        name: "grad"
        type_attr: "T"
      }
      output_arg {
        name: "out"
        type_attr: "T"
        is_ref: true
      }
      attr {
        name: "T"
        type: "type"
        allowed_values {
          list {
            type: DT_FLOAT
            type: DT_DOUBLE
            type: DT_INT32
            type: DT_UINT8
            type: DT_INT16
            type: DT_INT8
            type: DT_COMPLEX64
            type: DT_INT64
            type: DT_QINT8
            type: DT_QUINT8
            type: DT_QINT32
            type: DT_BFLOAT16
            type: DT_UINT16
            type: DT_COMPLEX128
            type: DT_HALF
            type: DT_UINT32
            type: DT_UINT64
          }
        }
      }
      attr {
        name: "use_locking"
        type: "bool"
        default_value {
          b: false
        }
      }
      attr {
        name: "use_nesterov"
        type: "bool"
        default_value {
          b: false
        }
      }
    }
    op {
      name: "Assign"
      input_arg {
        name: "ref"
        type_attr: "T"
        is_ref: true
      }
      input_arg {
        name: "value"
        type_attr: "T"
      }
      output_arg {
        name: "output_ref"
        type_attr: "T"
        is_ref: true
      }
      attr {
        name: "T"
        type: "type"
      }
      attr {
        name: "validate_shape"
        type: "bool"
        default_value {
          b: true
        }
      }
      attr {
        name: "use_locking"
        type: "bool"
        default_value {
          b: true
        }
      }
      allows_uninitialized_input: true
    }
    op {
      name: "BroadcastGradientArgs"
      input_arg {
        name: "s0"
        type_attr: "T"
      }
      input_arg {
        name: "s1"
        type_attr: "T"
      }
      output_arg {
        name: "r0"
        type_attr: "T"
      }
      output_arg {
        name: "r1"
        type_attr: "T"
      }
      attr {
        name: "T"
        type: "type"
        default_value {
          type: DT_INT32
        }
        allowed_values {
          list {
            type: DT_INT32
            type: DT_INT64
          }
        }
      }
    }
    op {
      name: "Cast"
      input_arg {
        name: "x"
        type_attr: "SrcT"
      }
      output_arg {
        name: "y"
        type_attr: "DstT"
      }
      attr {
        name: "SrcT"
        type: "type"
      }
      attr {
        name: "DstT"
        type: "type"
      }
      attr {
        name: "Truncate"
        type: "bool"
        default_value {
          b: false
        }
      }
    }
    op {
      name: "ConcatOffset"
      input_arg {
        name: "concat_dim"
        type: DT_INT32
      }
      input_arg {
        name: "shape"
        type: DT_INT32
        number_attr: "N"
      }
      output_arg {
        name: "offset"
        type: DT_INT32
        number_attr: "N"
      }
      attr {
        name: "N"
        type: "int"
        has_minimum: true
        minimum: 2
      }
    }
    op {
      name: "ConcatV2"
      input_arg {
        name: "values"
        type_attr: "T"
        number_attr: "N"
      }
      input_arg {
        name: "axis"
        type_attr: "Tidx"
      }
      output_arg {
        name: "output"
        type_attr: "T"
      }
      attr {
        name: "N"
        type: "int"
        has_minimum: true
        minimum: 2
      }
      attr {
        name: "T"
        type: "type"
      }
      attr {
        name: "Tidx"
        type: "type"
        default_value {
          type: DT_INT32
        }
        allowed_values {
          list {
            type: DT_INT32
            type: DT_INT64
          }
        }
      }
    }
    op {
      name: "Const"
      output_arg {
        name: "output"
        type_attr: "dtype"
      }
      attr {
        name: "value"
        type: "tensor"
      }
      attr {
        name: "dtype"
        type: "type"
      }
    }
    op {
      name: "DynamicStitch"
      input_arg {
        name: "indices"
        type: DT_INT32
        number_attr: "N"
      }
      input_arg {
        name: "data"
        type_attr: "T"
        number_attr: "N"
      }
      output_arg {
        name: "merged"
        type_attr: "T"
      }
      attr {
        name: "N"
        type: "int"
        has_minimum: true
        minimum: 1
      }
      attr {
        name: "T"
        type: "type"
      }
    }
    op {
      name: "Exp"
      input_arg {
        name: "x"
        type_attr: "T"
      }
      output_arg {
        name: "y"
        type_attr: "T"
      }
      attr {
        name: "T"
        type: "type"
        allowed_values {
          list {
            type: DT_BFLOAT16
            type: DT_HALF
            type: DT_FLOAT
            type: DT_DOUBLE
            type: DT_COMPLEX64
            type: DT_COMPLEX128
          }
        }
      }
    }
    op {
      name: "Fill"
      input_arg {
        name: "dims"
        type_attr: "index_type"
      }
      input_arg {
        name: "value"
        type_attr: "T"
      }
      output_arg {
        name: "output"
        type_attr: "T"
      }
      attr {
        name: "T"
        type: "type"
      }
      attr {
        name: "index_type"
        type: "type"
        default_value {
          type: DT_INT32
        }
        allowed_values {
          list {
            type: DT_INT32
            type: DT_INT64
          }
        }
      }
    }
    op {
      name: "FloorDiv"
      input_arg {
        name: "x"
        type_attr: "T"
      }
      input_arg {
        name: "y"
        type_attr: "T"
      }
      output_arg {
        name: "z"
        type_attr: "T"
      }
      attr {
        name: "T"
        type: "type"
        allowed_values {
          list {
            type: DT_BFLOAT16
            type: DT_HALF
            type: DT_FLOAT
            type: DT_DOUBLE
            type: DT_UINT8
            type: DT_INT8
            type: DT_UINT16
            type: DT_INT16
            type: DT_INT32
            type: DT_INT64
            type: DT_COMPLEX64
            type: DT_COMPLEX128
          }
        }
      }
    }
    op {
      name: "FloorMod"
      input_arg {
        name: "x"
        type_attr: "T"
      }
      input_arg {
        name: "y"
        type_attr: "T"
      }
      output_arg {
        name: "z"
        type_attr: "T"
      }
      attr {
        name: "T"
        type: "type"
        allowed_values {
          list {
            type: DT_INT32
            type: DT_INT64
            type: DT_BFLOAT16
            type: DT_HALF
            type: DT_FLOAT
            type: DT_DOUBLE
          }
        }
      }
    }
    op {
      name: "Greater"
      input_arg {
        name: "x"
        type_attr: "T"
      }
      input_arg {
        name: "y"
        type_attr: "T"
      }
      output_arg {
        name: "z"
        type: DT_BOOL
      }
      attr {
        name: "T"
        type: "type"
        allowed_values {
          list {
            type: DT_FLOAT
            type: DT_DOUBLE
            type: DT_INT32
            type: DT_UINT8
            type: DT_INT16
            type: DT_INT8
            type: DT_INT64
            type: DT_BFLOAT16
            type: DT_UINT16
            type: DT_HALF
            type: DT_UINT32
            type: DT_UINT64
          }
        }
      }
    }
    op {
      name: "GreaterEqual"
      input_arg {
        name: "x"
        type_attr: "T"
      }
      input_arg {
        name: "y"
        type_attr: "T"
      }
      output_arg {
        name: "z"
        type: DT_BOOL
      }
      attr {
        name: "T"
        type: "type"
        allowed_values {
          list {
            type: DT_FLOAT
            type: DT_DOUBLE
            type: DT_INT32
            type: DT_UINT8
            type: DT_INT16
            type: DT_INT8
            type: DT_INT64
            type: DT_BFLOAT16
            type: DT_UINT16
            type: DT_HALF
            type: DT_UINT32
            type: DT_UINT64
          }
        }
      }
    }
    op {
      name: "Identity"
      input_arg {
        name: "input"
        type_attr: "T"
      }
      output_arg {
        name: "output"
        type_attr: "T"
      }
      attr {
        name: "T"
        type: "type"
      }
    }
    op {
      name: "IsFinite"
      input_arg {
        name: "x"
        type_attr: "T"
      }
      output_arg {
        name: "y"
        type: DT_BOOL
      }
      attr {
        name: "T"
        type: "type"
        allowed_values {
          list {
            type: DT_BFLOAT16
            type: DT_HALF
            type: DT_FLOAT
            type: DT_DOUBLE
          }
        }
      }
    }
    op {
      name: "L2Loss"
      input_arg {
        name: "t"
        type_attr: "T"
      }
      output_arg {
        name: "output"
        type_attr: "T"
      }
      attr {
        name: "T"
        type: "type"
        allowed_values {
          list {
            type: DT_HALF
            type: DT_BFLOAT16
            type: DT_FLOAT
            type: DT_DOUBLE
          }
        }
      }
    }
    op {
      name: "LessEqual"
      input_arg {
        name: "x"
        type_attr: "T"
      }
      input_arg {
        name: "y"
        type_attr: "T"
      }
      output_arg {
        name: "z"
        type: DT_BOOL
      }
      attr {
        name: "T"
        type: "type"
        allowed_values {
          list {
            type: DT_FLOAT
            type: DT_DOUBLE
            type: DT_INT32
            type: DT_UINT8
            type: DT_INT16
            type: DT_INT8
            type: DT_INT64
            type: DT_BFLOAT16
            type: DT_UINT16
            type: DT_HALF
            type: DT_UINT32
            type: DT_UINT64
          }
        }
      }
    }
    op {
      name: "MatMul"
      input_arg {
        name: "a"
        type_attr: "T"
      }
      input_arg {
        name: "b"
        type_attr: "T"
      }
      output_arg {
        name: "product"
        type_attr: "T"
      }
      attr {
        name: "transpose_a"
        type: "bool"
        default_value {
          b: false
        }
      }
      attr {
        name: "transpose_b"
        type: "bool"
        default_value {
          b: false
        }
      }
      attr {
        name: "T"
        type: "type"
        allowed_values {
          list {
            type: DT_BFLOAT16
            type: DT_HALF
            type: DT_FLOAT
            type: DT_DOUBLE
            type: DT_INT32
            type: DT_INT64
            type: DT_COMPLEX64
            type: DT_COMPLEX128
          }
        }
      }
    }
    op {
      name: "Maximum"
      input_arg {
        name: "x"
        type_attr: "T"
      }
      input_arg {
        name: "y"
        type_attr: "T"
      }
      output_arg {
        name: "z"
        type_attr: "T"
      }
      attr {
        name: "T"
        type: "type"
        allowed_values {
          list {
            type: DT_BFLOAT16
            type: DT_HALF
            type: DT_FLOAT
            type: DT_DOUBLE
            type: DT_INT32
            type: DT_INT64
          }
        }
      }
    }
    op {
      name: "Mean"
      input_arg {
        name: "input"
        type_attr: "T"
      }
      input_arg {
        name: "reduction_indices"
        type_attr: "Tidx"
      }
      output_arg {
        name: "output"
        type_attr: "T"
      }
      attr {
        name: "keep_dims"
        type: "bool"
        default_value {
          b: false
        }
      }
      attr {
        name: "T"
        type: "type"
        allowed_values {
          list {
            type: DT_FLOAT
            type: DT_DOUBLE
            type: DT_INT32
            type: DT_UINT8
            type: DT_INT16
            type: DT_INT8
            type: DT_COMPLEX64
            type: DT_INT64
            type: DT_QINT8
            type: DT_QUINT8
            type: DT_QINT32
            type: DT_BFLOAT16
            type: DT_UINT16
            type: DT_COMPLEX128
            type: DT_HALF
            type: DT_UINT32
            type: DT_UINT64
          }
        }
      }
      attr {
        name: "Tidx"
        type: "type"
        default_value {
          type: DT_INT32
        }
        allowed_values {
          list {
            type: DT_INT32
            type: DT_INT64
          }
        }
      }
    }
    op {
      name: "MergeSummary"
      input_arg {
        name: "inputs"
        type: DT_STRING
        number_attr: "N"
      }
      output_arg {
        name: "summary"
        type: DT_STRING
      }
      attr {
        name: "N"
        type: "int"
        has_minimum: true
        minimum: 1
      }
    }
    op {
      name: "Minimum"
      input_arg {
        name: "x"
        type_attr: "T"
      }
      input_arg {
        name: "y"
        type_attr: "T"
      }
      output_arg {
        name: "z"
        type_attr: "T"
      }
      attr {
        name: "T"
        type: "type"
        allowed_values {
          list {
            type: DT_BFLOAT16
            type: DT_HALF
            type: DT_FLOAT
            type: DT_DOUBLE
            type: DT_INT32
            type: DT_INT64
          }
        }
      }
    }
    op {
      name: "Mul"
      input_arg {
        name: "x"
        type_attr: "T"
      }
      input_arg {
        name: "y"
        type_attr: "T"
      }
      output_arg {
        name: "z"
        type_attr: "T"
      }
      attr {
        name: "T"
        type: "type"
        allowed_values {
          list {
            type: DT_BFLOAT16
            type: DT_HALF
            type: DT_FLOAT
            type: DT_DOUBLE
            type: DT_UINT8
            type: DT_INT8
            type: DT_UINT16
            type: DT_INT16
            type: DT_INT32
            type: DT_INT64
            type: DT_COMPLEX64
            type: DT_COMPLEX128
          }
        }
      }
      is_commutative: true
    }
    op {
      name: "Neg"
      input_arg {
        name: "x"
        type_attr: "T"
      }
      output_arg {
        name: "y"
        type_attr: "T"
      }
      attr {
        name: "T"
        type: "type"
        allowed_values {
          list {
            type: DT_BFLOAT16
            type: DT_HALF
            type: DT_FLOAT
            type: DT_DOUBLE
            type: DT_INT32
            type: DT_INT64
            type: DT_COMPLEX64
            type: DT_COMPLEX128
          }
        }
      }
    }
    op {
      name: "NoOp"
    }
    op {
      name: "Pack"
      input_arg {
        name: "values"
        type_attr: "T"
        number_attr: "N"
      }
      output_arg {
        name: "output"
        type_attr: "T"
      }
      attr {
        name: "N"
        type: "int"
        has_minimum: true
        minimum: 1
      }
      attr {
        name: "T"
        type: "type"
      }
      attr {
        name: "axis"
        type: "int"
        default_value {
          i: 0
        }
      }
    }
    op {
      name: "Placeholder"
      output_arg {
        name: "output"
        type_attr: "dtype"
      }
      attr {
        name: "dtype"
        type: "type"
      }
      attr {
        name: "shape"
        type: "shape"
        default_value {
          shape {
            unknown_rank: true
          }
        }
      }
    }
    op {
      name: "PlaceholderWithDefault"
      input_arg {
        name: "input"
        type_attr: "dtype"
      }
      output_arg {
        name: "output"
        type_attr: "dtype"
      }
      attr {
        name: "dtype"
        type: "type"
      }
      attr {
        name: "shape"
        type: "shape"
      }
    }
    op {
      name: "Prod"
      input_arg {
        name: "input"
        type_attr: "T"
      }
      input_arg {
        name: "reduction_indices"
        type_attr: "Tidx"
      }
      output_arg {
        name: "output"
        type_attr: "T"
      }
      attr {
        name: "keep_dims"
        type: "bool"
        default_value {
          b: false
        }
      }
      attr {
        name: "T"
        type: "type"
        allowed_values {
          list {
            type: DT_FLOAT
            type: DT_DOUBLE
            type: DT_INT32
            type: DT_UINT8
            type: DT_INT16
            type: DT_INT8
            type: DT_COMPLEX64
            type: DT_INT64
            type: DT_QINT8
            type: DT_QUINT8
            type: DT_QINT32
            type: DT_BFLOAT16
            type: DT_UINT16
            type: DT_COMPLEX128
            type: DT_HALF
            type: DT_UINT32
            type: DT_UINT64
          }
        }
      }
      attr {
        name: "Tidx"
        type: "type"
        default_value {
          type: DT_INT32
        }
        allowed_values {
          list {
            type: DT_INT32
            type: DT_INT64
          }
        }
      }
    }
    op {
      name: "RandomStandardNormal"
      input_arg {
        name: "shape"
        type_attr: "T"
      }
      output_arg {
        name: "output"
        type_attr: "dtype"
      }
      attr {
        name: "seed"
        type: "int"
        default_value {
          i: 0
        }
      }
      attr {
        name: "seed2"
        type: "int"
        default_value {
          i: 0
        }
      }
      attr {
        name: "dtype"
        type: "type"
        allowed_values {
          list {
            type: DT_HALF
            type: DT_BFLOAT16
            type: DT_FLOAT
            type: DT_DOUBLE
          }
        }
      }
      attr {
        name: "T"
        type: "type"
        allowed_values {
          list {
            type: DT_INT32
            type: DT_INT64
          }
        }
      }
      is_stateful: true
    }
    op {
      name: "Range"
      input_arg {
        name: "start"
        type_attr: "Tidx"
      }
      input_arg {
        name: "limit"
        type_attr: "Tidx"
      }
      input_arg {
        name: "delta"
        type_attr: "Tidx"
      }
      output_arg {
        name: "output"
        type_attr: "Tidx"
      }
      attr {
        name: "Tidx"
        type: "type"
        default_value {
          type: DT_INT32
        }
        allowed_values {
          list {
            type: DT_BFLOAT16
            type: DT_FLOAT
            type: DT_DOUBLE
            type: DT_INT32
            type: DT_INT64
          }
        }
      }
    }
    op {
      name: "RealDiv"
      input_arg {
        name: "x"
        type_attr: "T"
      }
      input_arg {
        name: "y"
        type_attr: "T"
      }
      output_arg {
        name: "z"
        type_attr: "T"
      }
      attr {
        name: "T"
        type: "type"
        allowed_values {
          list {
            type: DT_BFLOAT16
            type: DT_HALF
            type: DT_FLOAT
            type: DT_DOUBLE
            type: DT_UINT8
            type: DT_INT8
            type: DT_UINT16
            type: DT_INT16
            type: DT_INT32
            type: DT_INT64
            type: DT_COMPLEX64
            type: DT_COMPLEX128
          }
        }
      }
    }
    op {
      name: "Reshape"
      input_arg {
        name: "tensor"
        type_attr: "T"
      }
      input_arg {
        name: "shape"
        type_attr: "Tshape"
      }
      output_arg {
        name: "output"
        type_attr: "T"
      }
      attr {
        name: "T"
        type: "type"
      }
      attr {
        name: "Tshape"
        type: "type"
        default_value {
          type: DT_INT32
        }
        allowed_values {
          list {
            type: DT_INT32
            type: DT_INT64
          }
        }
      }
    }
    op {
      name: "RestoreV2"
      input_arg {
        name: "prefix"
        type: DT_STRING
      }
      input_arg {
        name: "tensor_names"
        type: DT_STRING
      }
      input_arg {
        name: "shape_and_slices"
        type: DT_STRING
      }
      output_arg {
        name: "tensors"
        type_list_attr: "dtypes"
      }
      attr {
        name: "dtypes"
        type: "list(type)"
        has_minimum: true
        minimum: 1
      }
      is_stateful: true
    }
    op {
      name: "SaveV2"
      input_arg {
        name: "prefix"
        type: DT_STRING
      }
      input_arg {
        name: "tensor_names"
        type: DT_STRING
      }
      input_arg {
        name: "shape_and_slices"
        type: DT_STRING
      }
      input_arg {
        name: "tensors"
        type_list_attr: "dtypes"
      }
      attr {
        name: "dtypes"
        type: "list(type)"
        has_minimum: true
        minimum: 1
      }
      is_stateful: true
    }
    op {
      name: "ScalarSummary"
      input_arg {
        name: "tags"
        type: DT_STRING
      }
      input_arg {
        name: "values"
        type_attr: "T"
      }
      output_arg {
        name: "summary"
        type: DT_STRING
      }
      attr {
        name: "T"
        type: "type"
        allowed_values {
          list {
            type: DT_FLOAT
            type: DT_DOUBLE
            type: DT_INT32
            type: DT_UINT8
            type: DT_INT16
            type: DT_INT8
            type: DT_INT64
            type: DT_BFLOAT16
            type: DT_UINT16
            type: DT_HALF
            type: DT_UINT32
            type: DT_UINT64
          }
        }
      }
    }
    op {
      name: "Select"
      input_arg {
        name: "condition"
        type: DT_BOOL
      }
      input_arg {
        name: "t"
        type_attr: "T"
      }
      input_arg {
        name: "e"
        type_attr: "T"
      }
      output_arg {
        name: "output"
        type_attr: "T"
      }
      attr {
        name: "T"
        type: "type"
      }
    }
    op {
      name: "Shape"
      input_arg {
        name: "input"
        type_attr: "T"
      }
      output_arg {
        name: "output"
        type_attr: "out_type"
      }
      attr {
        name: "T"
        type: "type"
      }
      attr {
        name: "out_type"
        type: "type"
        default_value {
          type: DT_INT32
        }
        allowed_values {
          list {
            type: DT_INT32
            type: DT_INT64
          }
        }
      }
    }
    op {
      name: "ShapeN"
      input_arg {
        name: "input"
        type_attr: "T"
        number_attr: "N"
      }
      output_arg {
        name: "output"
        type_attr: "out_type"
        number_attr: "N"
      }
      attr {
        name: "N"
        type: "int"
        has_minimum: true
        minimum: 1
      }
      attr {
        name: "T"
        type: "type"
      }
      attr {
        name: "out_type"
        type: "type"
        default_value {
          type: DT_INT32
        }
        allowed_values {
          list {
            type: DT_INT32
            type: DT_INT64
          }
        }
      }
    }
    op {
      name: "Slice"
      input_arg {
        name: "input"
        type_attr: "T"
      }
      input_arg {
        name: "begin"
        type_attr: "Index"
      }
      input_arg {
        name: "size"
        type_attr: "Index"
      }
      output_arg {
        name: "output"
        type_attr: "T"
      }
      attr {
        name: "T"
        type: "type"
      }
      attr {
        name: "Index"
        type: "type"
        allowed_values {
          list {
            type: DT_INT32
            type: DT_INT64
          }
        }
      }
    }
    op {
      name: "Split"
      input_arg {
        name: "split_dim"
        type: DT_INT32
      }
      input_arg {
        name: "value"
        type_attr: "T"
      }
      output_arg {
        name: "output"
        type_attr: "T"
        number_attr: "num_split"
      }
      attr {
        name: "num_split"
        type: "int"
        has_minimum: true
        minimum: 1
      }
      attr {
        name: "T"
        type: "type"
      }
    }
    op {
      name: "Sqrt"
      input_arg {
        name: "x"
        type_attr: "T"
      }
      output_arg {
        name: "y"
        type_attr: "T"
      }
      attr {
        name: "T"
        type: "type"
        allowed_values {
          list {
            type: DT_BFLOAT16
            type: DT_HALF
            type: DT_FLOAT
            type: DT_DOUBLE
            type: DT_COMPLEX64
            type: DT_COMPLEX128
          }
        }
      }
    }
    op {
      name: "Square"
      input_arg {
        name: "x"
        type_attr: "T"
      }
      output_arg {
        name: "y"
        type_attr: "T"
      }
      attr {
        name: "T"
        type: "type"
        allowed_values {
          list {
            type: DT_BFLOAT16
            type: DT_HALF
            type: DT_FLOAT
            type: DT_DOUBLE
            type: DT_INT32
            type: DT_INT64
            type: DT_COMPLEX64
            type: DT_COMPLEX128
          }
        }
      }
    }
    op {
      name: "StridedSlice"
      input_arg {
        name: "input"
        type_attr: "T"
      }
      input_arg {
        name: "begin"
        type_attr: "Index"
      }
      input_arg {
        name: "end"
        type_attr: "Index"
      }
      input_arg {
        name: "strides"
        type_attr: "Index"
      }
      output_arg {
        name: "output"
        type_attr: "T"
      }
      attr {
        name: "T"
        type: "type"
      }
      attr {
        name: "Index"
        type: "type"
        allowed_values {
          list {
            type: DT_INT32
            type: DT_INT64
          }
        }
      }
      attr {
        name: "begin_mask"
        type: "int"
        default_value {
          i: 0
        }
      }
      attr {
        name: "end_mask"
        type: "int"
        default_value {
          i: 0
        }
      }
      attr {
        name: "ellipsis_mask"
        type: "int"
        default_value {
          i: 0
        }
      }
      attr {
        name: "new_axis_mask"
        type: "int"
        default_value {
          i: 0
        }
      }
      attr {
        name: "shrink_axis_mask"
        type: "int"
        default_value {
          i: 0
        }
      }
    }
    op {
      name: "StridedSliceGrad"
      input_arg {
        name: "shape"
        type_attr: "Index"
      }
      input_arg {
        name: "begin"
        type_attr: "Index"
      }
      input_arg {
        name: "end"
        type_attr: "Index"
      }
      input_arg {
        name: "strides"
        type_attr: "Index"
      }
      input_arg {
        name: "dy"
        type_attr: "T"
      }
      output_arg {
        name: "output"
        type_attr: "T"
      }
      attr {
        name: "T"
        type: "type"
      }
      attr {
        name: "Index"
        type: "type"
        allowed_values {
          list {
            type: DT_INT32
            type: DT_INT64
          }
        }
      }
      attr {
        name: "begin_mask"
        type: "int"
        default_value {
          i: 0
        }
      }
      attr {
        name: "end_mask"
        type: "int"
        default_value {
          i: 0
        }
      }
      attr {
        name: "ellipsis_mask"
        type: "int"
        default_value {
          i: 0
        }
      }
      attr {
        name: "new_axis_mask"
        type: "int"
        default_value {
          i: 0
        }
      }
      attr {
        name: "shrink_axis_mask"
        type: "int"
        default_value {
          i: 0
        }
      }
    }
    op {
      name: "Sub"
      input_arg {
        name: "x"
        type_attr: "T"
      }
      input_arg {
        name: "y"
        type_attr: "T"
      }
      output_arg {
        name: "z"
        type_attr: "T"
      }
      attr {
        name: "T"
        type: "type"
        allowed_values {
          list {
            type: DT_BFLOAT16
            type: DT_HALF
            type: DT_FLOAT
            type: DT_DOUBLE
            type: DT_UINT8
            type: DT_INT8
            type: DT_UINT16
            type: DT_INT16
            type: DT_INT32
            type: DT_INT64
            type: DT_COMPLEX64
            type: DT_COMPLEX128
          }
        }
      }
    }
    op {
      name: "Sum"
      input_arg {
        name: "input"
        type_attr: "T"
      }
      input_arg {
        name: "reduction_indices"
        type_attr: "Tidx"
      }
      output_arg {
        name: "output"
        type_attr: "T"
      }
      attr {
        name: "keep_dims"
        type: "bool"
        default_value {
          b: false
        }
      }
      attr {
        name: "T"
        type: "type"
        allowed_values {
          list {
            type: DT_FLOAT
            type: DT_DOUBLE
            type: DT_INT32
            type: DT_UINT8
            type: DT_INT16
            type: DT_INT8
            type: DT_COMPLEX64
            type: DT_INT64
            type: DT_QINT8
            type: DT_QUINT8
            type: DT_QINT32
            type: DT_BFLOAT16
            type: DT_UINT16
            type: DT_COMPLEX128
            type: DT_HALF
            type: DT_UINT32
            type: DT_UINT64
          }
        }
      }
      attr {
        name: "Tidx"
        type: "type"
        default_value {
          type: DT_INT32
        }
        allowed_values {
          list {
            type: DT_INT32
            type: DT_INT64
          }
        }
      }
    }
    op {
      name: "Tanh"
      input_arg {
        name: "x"
        type_attr: "T"
      }
      output_arg {
        name: "y"
        type_attr: "T"
      }
      attr {
        name: "T"
        type: "type"
        allowed_values {
          list {
            type: DT_BFLOAT16
            type: DT_HALF
            type: DT_FLOAT
            type: DT_DOUBLE
            type: DT_COMPLEX64
            type: DT_COMPLEX128
          }
        }
      }
    }
    op {
      name: "TanhGrad"
      input_arg {
        name: "y"
        type_attr: "T"
      }
      input_arg {
        name: "dy"
        type_attr: "T"
      }
      output_arg {
        name: "z"
        type_attr: "T"
      }
      attr {
        name: "T"
        type: "type"
        allowed_values {
          list {
            type: DT_BFLOAT16
            type: DT_HALF
            type: DT_FLOAT
            type: DT_DOUBLE
            type: DT_COMPLEX64
            type: DT_COMPLEX128
          }
        }
      }
    }
    op {
      name: "Tile"
      input_arg {
        name: "input"
        type_attr: "T"
      }
      input_arg {
        name: "multiples"
        type_attr: "Tmultiples"
      }
      output_arg {
        name: "output"
        type_attr: "T"
      }
      attr {
        name: "T"
        type: "type"
      }
      attr {
        name: "Tmultiples"
        type: "type"
        default_value {
          type: DT_INT32
        }
        allowed_values {
          list {
            type: DT_INT32
            type: DT_INT64
          }
        }
      }
    }
    op {
      name: "VariableV2"
      output_arg {
        name: "ref"
        type_attr: "dtype"
        is_ref: true
      }
      attr {
        name: "shape"
        type: "shape"
      }
      attr {
        name: "dtype"
        type: "type"
      }
      attr {
        name: "container"
        type: "string"
        default_value {
          s: ""
        }
      }
      attr {
        name: "shared_name"
        type: "string"
        default_value {
          s: ""
        }
      }
      is_stateful: true
    }
  }
  tensorflow_version: "1.14.0"
  tensorflow_git_version: "v1.14.0-rc1-22-gaf24dc91b5"
}
graph_def {
  node {
    name: "input/Ob"
    op: "Placeholder"
    attr {
      key: "_output_shapes"
      value {
        list {
          shape {
            dim {
              size: -1
            }
            dim {
              size: 1
            }
          }
        }
      }
    }
    attr {
      key: "dtype"
      value {
        type: DT_FLOAT
      }
    }
    attr {
      key: "shape"
      value {
        shape {
          dim {
            size: -1
          }
          dim {
            size: 1
          }
        }
      }
    }
  }
  node {
    name: "input/processed_observations/y"
    op: "Const"
    attr {
      key: "_output_shapes"
      value {
        list {
          shape {
          }
        }
      }
    }
    attr {
      key: "dtype"
      value {
        type: DT_FLOAT
      }
    }
    attr {
      key: "value"
      value {
        tensor {
          dtype: DT_FLOAT
          tensor_shape {
          }
          float_val: 0.0
        }
      }
    }
  }
  node {
    name: "input/processed_observations"
    op: "Add"
    input: "input/Ob"
    input: "input/processed_observations/y"
    attr {
      key: "T"
      value {
        type: DT_FLOAT
      }
    }
    attr {
      key: "_output_shapes"
      value {
        list {
          shape {
            dim {
              size: -1
            }
            dim {
              size: 1
            }
          }
        }
      }
    }
  }
  node {
    name: "model/flatten/Shape"
    op: "Shape"
    input: "input/processed_observations"
    attr {
      key: "T"
      value {
        type: DT_FLOAT
      }
    }
    attr {
      key: "_output_shapes"
      value {
        list {
          shape {
            dim {
              size: 2
            }
          }
        }
      }
    }
    attr {
      key: "out_type"
      value {
        type: DT_INT32
      }
    }
  }
  node {
    name: "model/flatten/strided_slice/stack"
    op: "Const"
    attr {
      key: "_output_shapes"
      value {
        list {
          shape {
            dim {
              size: 1
            }
          }
        }
      }
    }
    attr {
      key: "dtype"
      value {
        type: DT_INT32
      }
    }
    attr {
      key: "value"
      value {
        tensor {
          dtype: DT_INT32
          tensor_shape {
            dim {
              size: 1
            }
          }
          int_val: 0
        }
      }
    }
  }
  node {
    name: "model/flatten/strided_slice/stack_1"
    op: "Const"
    attr {
      key: "_output_shapes"
      value {
        list {
          shape {
            dim {
              size: 1
            }
          }
        }
      }
    }
    attr {
      key: "dtype"
      value {
        type: DT_INT32
      }
    }
    attr {
      key: "value"
      value {
        tensor {
          dtype: DT_INT32
          tensor_shape {
            dim {
              size: 1
            }
          }
          int_val: 1
        }
      }
    }
  }
  node {
    name: "model/flatten/strided_slice/stack_2"
    op: "Const"
    attr {
      key: "_output_shapes"
      value {
        list {
          shape {
            dim {
              size: 1
            }
          }
        }
      }
    }
    attr {
      key: "dtype"
      value {
        type: DT_INT32
      }
    }
    attr {
      key: "value"
      value {
        tensor {
          dtype: DT_INT32
          tensor_shape {
            dim {
              size: 1
            }
          }
          int_val: 1
        }
      }
    }
  }
  node {
    name: "model/flatten/strided_slice"
    op: "StridedSlice"
    input: "model/flatten/Shape"
    input: "model/flatten/strided_slice/stack"
    input: "model/flatten/strided_slice/stack_1"
    input: "model/flatten/strided_slice/stack_2"
    attr {
      key: "Index"
      value {
        type: DT_INT32
      }
    }
    attr {
      key: "T"
      value {
        type: DT_INT32
      }
    }
    attr {
      key: "_output_shapes"
      value {
        list {
          shape {
          }
        }
      }
    }
    attr {
      key: "begin_mask"
      value {
        i: 0
      }
    }
    attr {
      key: "ellipsis_mask"
      value {
        i: 0
      }
    }
    attr {
      key: "end_mask"
      value {
        i: 0
      }
    }
    attr {
      key: "new_axis_mask"
      value {
        i: 0
      }
    }
    attr {
      key: "shrink_axis_mask"
      value {
        i: 1
      }
    }
  }
  node {
    name: "model/flatten/Reshape/shape/1"
    op: "Const"
    attr {
      key: "_output_shapes"
      value {
        list {
          shape {
          }
        }
      }
    }
    attr {
      key: "dtype"
      value {
        type: DT_INT32
      }
    }
    attr {
      key: "value"
      value {
        tensor {
          dtype: DT_INT32
          tensor_shape {
          }
          int_val: -1
        }
      }
    }
  }
  node {
    name: "model/flatten/Reshape/shape"
    op: "Pack"
    input: "model/flatten/strided_slice"
    input: "model/flatten/Reshape/shape/1"
    attr {
      key: "N"
      value {
        i: 2
      }
    }
    attr {
      key: "T"
      value {
        type: DT_INT32
      }
    }
    attr {
      key: "_output_shapes"
      value {
        list {
          shape {
            dim {
              size: 2
            }
          }
        }
      }
    }
    attr {
      key: "axis"
      value {
        i: 0
      }
    }
  }
  node {
    name: "model/flatten/Reshape"
    op: "Reshape"
    input: "input/processed_observations"
    input: "model/flatten/Reshape/shape"
    attr {
      key: "T"
      value {
        type: DT_FLOAT
      }
    }
    attr {
      key: "Tshape"
      value {
        type: DT_INT32
      }
    }
    attr {
      key: "_output_shapes"
      value {
        list {
          shape {
            dim {
              size: -1
            }
            dim {
              size: 1
            }
          }
        }
      }
    }
  }
  node {
    name: "model/pi_fc0/w/Initializer/initial_value"
    op: "Const"
    attr {
      key: "_class"
      value {
        list {
          s: "loc:@model/pi_fc0/w"
        }
      }
    }
    attr {
      key: "_output_shapes"
      value {
        list {
          shape {
            dim {
              size: 1
            }
            dim {
              size: 2
            }
          }
        }
      }
    }
    attr {
      key: "dtype"
      value {
        type: DT_FLOAT
      }
    }
    attr {
      key: "value"
      value {
        tensor {
          dtype: DT_FLOAT
          tensor_shape {
            dim {
              size: 1
            }
            dim {
              size: 2
            }
          }
          tensor_content: "\245\364\250\277\'\364\001?"
        }
      }
    }
  }
  node {
    name: "model/pi_fc0/w"
    op: "VariableV2"
    attr {
      key: "_class"
      value {
        list {
          s: "loc:@model/pi_fc0/w"
        }
      }
    }
    attr {
      key: "_output_shapes"
      value {
        list {
          shape {
            dim {
              size: 1
            }
            dim {
              size: 2
            }
          }
        }
      }
    }
    attr {
      key: "container"
      value {
        s: ""
      }
    }
    attr {
      key: "dtype"
      value {
        type: DT_FLOAT
      }
    }
    attr {
      key: "shape"
      value {
        shape {
          dim {
            size: 1
          }
          dim {
            size: 2
          }
        }
      }
    }
    attr {
      key: "shared_name"
      value {
        s: ""
      }
    }
  }
  node {
    name: "model/pi_fc0/w/Assign"
    op: "Assign"
    input: "model/pi_fc0/w"
    input: "model/pi_fc0/w/Initializer/initial_value"
    attr {
      key: "T"
      value {
        type: DT_FLOAT
      }
    }
    attr {
      key: "_class"
      value {
        list {
          s: "loc:@model/pi_fc0/w"
        }
      }
    }
    attr {
      key: "_output_shapes"
      value {
        list {
          shape {
            dim {
              size: 1
            }
            dim {
              size: 2
            }
          }
        }
      }
    }
    attr {
      key: "use_locking"
      value {
        b: true
      }
    }
    attr {
      key: "validate_shape"
      value {
        b: true
      }
    }
  }
  node {
    name: "model/pi_fc0/w/read"
    op: "Identity"
    input: "model/pi_fc0/w"
    attr {
      key: "T"
      value {
        type: DT_FLOAT
      }
    }
    attr {
      key: "_class"
      value {
        list {
          s: "loc:@model/pi_fc0/w"
        }
      }
    }
    attr {
      key: "_output_shapes"
      value {
        list {
          shape {
            dim {
              size: 1
            }
            dim {
              size: 2
            }
          }
        }
      }
    }
  }
  node {
    name: "model/pi_fc0/b/Initializer/Const"
    op: "Const"
    attr {
      key: "_class"
      value {
        list {
          s: "loc:@model/pi_fc0/b"
        }
      }
    }
    attr {
      key: "_output_shapes"
      value {
        list {
          shape {
            dim {
              size: 2
            }
          }
        }
      }
    }
    attr {
      key: "dtype"
      value {
        type: DT_FLOAT
      }
    }
    attr {
      key: "value"
      value {
        tensor {
          dtype: DT_FLOAT
          tensor_shape {
            dim {
              size: 2
            }
          }
          float_val: 0.0
        }
      }
    }
  }
  node {
    name: "model/pi_fc0/b"
    op: "VariableV2"
    attr {
      key: "_class"
      value {
        list {
          s: "loc:@model/pi_fc0/b"
        }
      }
    }
    attr {
      key: "_output_shapes"
      value {
        list {
          shape {
            dim {
              size: 2
            }
          }
        }
      }
    }
    attr {
      key: "container"
      value {
        s: ""
      }
    }
    attr {
      key: "dtype"
      value {
        type: DT_FLOAT
      }
    }
    attr {
      key: "shape"
      value {
        shape {
          dim {
            size: 2
          }
        }
      }
    }
    attr {
      key: "shared_name"
      value {
        s: ""
      }
    }
  }
  node {
    name: "model/pi_fc0/b/Assign"
    op: "Assign"
    input: "model/pi_fc0/b"
    input: "model/pi_fc0/b/Initializer/Const"
    attr {
      key: "T"
      value {
        type: DT_FLOAT
      }
    }
    attr {
      key: "_class"
      value {
        list {
          s: "loc:@model/pi_fc0/b"
        }
      }
    }
    attr {
      key: "_output_shapes"
      value {
        list {
          shape {
            dim {
              size: 2
            }
          }
        }
      }
    }
    attr {
      key: "use_locking"
      value {
        b: true
      }
    }
    attr {
      key: "validate_shape"
      value {
        b: true
      }
    }
  }
  node {
    name: "model/pi_fc0/b/read"
    op: "Identity"
    input: "model/pi_fc0/b"
    attr {
      key: "T"
      value {
        type: DT_FLOAT
      }
    }
    attr {
      key: "_class"
      value {
        list {
          s: "loc:@model/pi_fc0/b"
        }
      }
    }
    attr {
      key: "_output_shapes"
      value {
        list {
          shape {
            dim {
              size: 2
            }
          }
        }
      }
    }
  }
  node {
    name: "model/pi_fc0/MatMul"
    op: "MatMul"
    input: "model/flatten/Reshape"
    input: "model/pi_fc0/w/read"
    attr {
      key: "T"
      value {
        type: DT_FLOAT
      }
    }
    attr {
      key: "_output_shapes"
      value {
        list {
          shape {
            dim {
              size: -1
            }
            dim {
              size: 2
            }
          }
        }
      }
    }
    attr {
      key: "transpose_a"
      value {
        b: false
      }
    }
    attr {
      key: "transpose_b"
      value {
        b: false
      }
    }
  }
  node {
    name: "model/pi_fc0/Add"
    op: "Add"
    input: "model/pi_fc0/MatMul"
    input: "model/pi_fc0/b/read"
    attr {
      key: "T"
      value {
        type: DT_FLOAT
      }
    }
    attr {
      key: "_output_shapes"
      value {
        list {
          shape {
            dim {
              size: -1
            }
            dim {
              size: 2
            }
          }
        }
      }
    }
  }
  node {
    name: "model/Tanh"
    op: "Tanh"
    input: "model/pi_fc0/Add"
    attr {
      key: "T"
      value {
        type: DT_FLOAT
      }
    }
    attr {
      key: "_output_shapes"
      value {
        list {
          shape {
            dim {
              size: -1
            }
            dim {
              size: 2
            }
          }
        }
      }
    }
  }
  node {
    name: "model/vf_fc0/w/Initializer/initial_value"
    op: "Const"
    attr {
      key: "_class"
      value {
        list {
          s: "loc:@model/vf_fc0/w"
        }
      }
    }
    attr {
      key: "_output_shapes"
      value {
        list {
          shape {
            dim {
              size: 1
            }
            dim {
              size: 2
            }
          }
        }
      }
    }
    attr {
      key: "dtype"
      value {
        type: DT_FLOAT
      }
    }
    attr {
      key: "value"
      value {
        tensor {
          dtype: DT_FLOAT
          tensor_shape {
            dim {
              size: 1
            }
            dim {
              size: 2
            }
          }
          tensor_content: "\021M\356\276_\357\252\277"
        }
      }
    }
  }
  node {
    name: "model/vf_fc0/w"
    op: "VariableV2"
    attr {
      key: "_class"
      value {
        list {
          s: "loc:@model/vf_fc0/w"
        }
      }
    }
    attr {
      key: "_output_shapes"
      value {
        list {
          shape {
            dim {
              size: 1
            }
            dim {
              size: 2
            }
          }
        }
      }
    }
    attr {
      key: "container"
      value {
        s: ""
      }
    }
    attr {
      key: "dtype"
      value {
        type: DT_FLOAT
      }
    }
    attr {
      key: "shape"
      value {
        shape {
          dim {
            size: 1
          }
          dim {
            size: 2
          }
        }
      }
    }
    attr {
      key: "shared_name"
      value {
        s: ""
      }
    }
  }
  node {
    name: "model/vf_fc0/w/Assign"
    op: "Assign"
    input: "model/vf_fc0/w"
    input: "model/vf_fc0/w/Initializer/initial_value"
    attr {
      key: "T"
      value {
        type: DT_FLOAT
      }
    }
    attr {
      key: "_class"
      value {
        list {
          s: "loc:@model/vf_fc0/w"
        }
      }
    }
    attr {
      key: "_output_shapes"
      value {
        list {
          shape {
            dim {
              size: 1
            }
            dim {
              size: 2
            }
          }
        }
      }
    }
    attr {
      key: "use_locking"
      value {
        b: true
      }
    }
    attr {
      key: "validate_shape"
      value {
        b: true
      }
    }
  }
  node {
    name: "model/vf_fc0/w/read"
    op: "Identity"
    input: "model/vf_fc0/w"
    attr {
      key: "T"
      value {
        type: DT_FLOAT
      }
    }
    attr {
      key: "_class"
      value {
        list {
          s: "loc:@model/vf_fc0/w"
        }
      }
    }
    attr {
      key: "_output_shapes"
      value {
        list {
          shape {
            dim {
              size: 1
            }
            dim {
              size: 2
            }
          }
        }
      }
    }
  }
  node {
    name: "model/vf_fc0/b/Initializer/Const"
    op: "Const"
    attr {
      key: "_class"
      value {
        list {
          s: "loc:@model/vf_fc0/b"
        }
      }
    }
    attr {
      key: "_output_shapes"
      value {
        list {
          shape {
            dim {
              size: 2
            }
          }
        }
      }
    }
    attr {
      key: "dtype"
      value {
        type: DT_FLOAT
      }
    }
    attr {
      key: "value"
      value {
        tensor {
          dtype: DT_FLOAT
          tensor_shape {
            dim {
              size: 2
            }
          }
          float_val: 0.0
        }
      }
    }
  }
  node {
    name: "model/vf_fc0/b"
    op: "VariableV2"
    attr {
      key: "_class"
      value {
        list {
          s: "loc:@model/vf_fc0/b"
        }
      }
    }
    attr {
      key: "_output_shapes"
      value {
        list {
          shape {
            dim {
              size: 2
            }
          }
        }
      }
    }
    attr {
      key: "container"
      value {
        s: ""
      }
    }
    attr {
      key: "dtype"
      value {
        type: DT_FLOAT
      }
    }
    attr {
      key: "shape"
      value {
        shape {
          dim {
            size: 2
          }
        }
      }
    }
    attr {
      key: "shared_name"
      value {
        s: ""
      }
    }
  }
  node {
    name: "model/vf_fc0/b/Assign"
    op: "Assign"
    input: "model/vf_fc0/b"
    input: "model/vf_fc0/b/Initializer/Const"
    attr {
      key: "T"
      value {
        type: DT_FLOAT
      }
    }
    attr {
      key: "_class"
      value {
        list {
          s: "loc:@model/vf_fc0/b"
        }
      }
    }
    attr {
      key: "_output_shapes"
      value {
        list {
          shape {
            dim {
              size: 2
            }
          }
        }
      }
    }
    attr {
      key: "use_locking"
      value {
        b: true
      }
    }
    attr {
      key: "validate_shape"
      value {
        b: true
      }
    }
  }
  node {
    name: "model/vf_fc0/b/read"
    op: "Identity"
    input: "model/vf_fc0/b"
    attr {
      key: "T"
      value {
        type: DT_FLOAT
      }
    }
    attr {
      key: "_class"
      value {
        list {
          s: "loc:@model/vf_fc0/b"
        }
      }
    }
    attr {
      key: "_output_shapes"
      value {
        list {
          shape {
            dim {
              size: 2
            }
          }
        }
      }
    }
  }
  node {
    name: "model/vf_fc0/MatMul"
    op: "MatMul"
    input: "model/flatten/Reshape"
    input: "model/vf_fc0/w/read"
    attr {
      key: "T"
      value {
        type: DT_FLOAT
      }
    }
    attr {
      key: "_output_shapes"
      value {
        list {
          shape {
            dim {
              size: -1
            }
            dim {
              size: 2
            }
          }
        }
      }
    }
    attr {
      key: "transpose_a"
      value {
        b: false
      }
    }
    attr {
      key: "transpose_b"
      value {
        b: false
      }
    }
  }
  node {
    name: "model/vf_fc0/Add"
    op: "Add"
    input: "model/vf_fc0/MatMul"
    input: "model/vf_fc0/b/read"
    attr {
      key: "T"
      value {
        type: DT_FLOAT
      }
    }
    attr {
      key: "_output_shapes"
      value {
        list {
          shape {
            dim {
              size: -1
            }
            dim {
              size: 2
            }
          }
        }
      }
    }
  }
  node {
    name: "model/Tanh_1"
    op: "Tanh"
    input: "model/vf_fc0/Add"
    attr {
      key: "T"
      value {
        type: DT_FLOAT
      }
    }
    attr {
      key: "_output_shapes"
      value {
        list {
          shape {
            dim {
              size: -1
            }
            dim {
              size: 2
            }
          }
        }
      }
    }
  }
  node {
    name: "model/pi_fc1/w/Initializer/initial_value"
    op: "Const"
    attr {
      key: "_class"
      value {
        list {
          s: "loc:@model/pi_fc1/w"
        }
      }
    }
    attr {
      key: "_output_shapes"
      value {
        list {
          shape {
            dim {
              size: 2
            }
            dim {
              size: 2
            }
          }
        }
      }
    }
    attr {
      key: "dtype"
      value {
        type: DT_FLOAT
      }
    }
    attr {
      key: "value"
      value {
        tensor {
          dtype: DT_FLOAT
          tensor_shape {
            dim {
              size: 2
            }
            dim {
              size: 2
            }
          }
          tensor_content: "\230\"\225\277\0263M\277\0263M\277\230\"\225?"
        }
      }
    }
  }
  node {
    name: "model/pi_fc1/w"
    op: "VariableV2"
    attr {
      key: "_class"
      value {
        list {
          s: "loc:@model/pi_fc1/w"
        }
      }
    }
    attr {
      key: "_output_shapes"
      value {
        list {
          shape {
            dim {
              size: 2
            }
            dim {
              size: 2
            }
          }
        }
      }
    }
    attr {
      key: "container"
      value {
        s: ""
      }
    }
    attr {
      key: "dtype"
      value {
        type: DT_FLOAT
      }
    }
    attr {
      key: "shape"
      value {
        shape {
          dim {
            size: 2
          }
          dim {
            size: 2
          }
        }
      }
    }
    attr {
      key: "shared_name"
      value {
        s: ""
      }
    }
  }
  node {
    name: "model/pi_fc1/w/Assign"
    op: "Assign"
    input: "model/pi_fc1/w"
    input: "model/pi_fc1/w/Initializer/initial_value"
    attr {
      key: "T"
      value {
        type: DT_FLOAT
      }
    }
    attr {
      key: "_class"
      value {
        list {
          s: "loc:@model/pi_fc1/w"
        }
      }
    }
    attr {
      key: "_output_shapes"
      value {
        list {
          shape {
            dim {
              size: 2
            }
            dim {
              size: 2
            }
          }
        }
      }
    }
    attr {
      key: "use_locking"
      value {
        b: true
      }
    }
    attr {
      key: "validate_shape"
      value {
        b: true
      }
    }
  }
  node {
    name: "model/pi_fc1/w/read"
    op: "Identity"
    input: "model/pi_fc1/w"
    attr {
      key: "T"
      value {
        type: DT_FLOAT
      }
    }
    attr {
      key: "_class"
      value {
        list {
          s: "loc:@model/pi_fc1/w"
        }
      }
    }
    attr {
      key: "_output_shapes"
      value {
        list {
          shape {
            dim {
              size: 2
            }
            dim {
              size: 2
            }
          }
        }
      }
    }
  }
  node {
    name: "model/pi_fc1/b/Initializer/Const"
    op: "Const"
    attr {
      key: "_class"
      value {
        list {
          s: "loc:@model/pi_fc1/b"
        }
      }
    }
    attr {
      key: "_output_shapes"
      value {
        list {
          shape {
            dim {
              size: 2
            }
          }
        }
      }
    }
    attr {
      key: "dtype"
      value {
        type: DT_FLOAT
      }
    }
    attr {
      key: "value"
      value {
        tensor {
          dtype: DT_FLOAT
          tensor_shape {
            dim {
              size: 2
            }
          }
          float_val: 0.0
        }
      }
    }
  }
  node {
    name: "model/pi_fc1/b"
    op: "VariableV2"
    attr {
      key: "_class"
      value {
        list {
          s: "loc:@model/pi_fc1/b"
        }
      }
    }
    attr {
      key: "_output_shapes"
      value {
        list {
          shape {
            dim {
              size: 2
            }
          }
        }
      }
    }
    attr {
      key: "container"
      value {
        s: ""
      }
    }
    attr {
      key: "dtype"
      value {
        type: DT_FLOAT
      }
    }
    attr {
      key: "shape"
      value {
        shape {
          dim {
            size: 2
          }
        }
      }
    }
    attr {
      key: "shared_name"
      value {
        s: ""
      }
    }
  }
  node {
    name: "model/pi_fc1/b/Assign"
    op: "Assign"
    input: "model/pi_fc1/b"
    input: "model/pi_fc1/b/Initializer/Const"
    attr {
      key: "T"
      value {
        type: DT_FLOAT
      }
    }
    attr {
      key: "_class"
      value {
        list {
          s: "loc:@model/pi_fc1/b"
        }
      }
    }
    attr {
      key: "_output_shapes"
      value {
        list {
          shape {
            dim {
              size: 2
            }
          }
        }
      }
    }
    attr {
      key: "use_locking"
      value {
        b: true
      }
    }
    attr {
      key: "validate_shape"
      value {
        b: true
      }
    }
  }
  node {
    name: "model/pi_fc1/b/read"
    op: "Identity"
    input: "model/pi_fc1/b"
    attr {
      key: "T"
      value {
        type: DT_FLOAT
      }
    }
    attr {
      key: "_class"
      value {
        list {
          s: "loc:@model/pi_fc1/b"
        }
      }
    }
    attr {
      key: "_output_shapes"
      value {
        list {
          shape {
            dim {
              size: 2
            }
          }
        }
      }
    }
  }
  node {
    name: "model/pi_fc1/MatMul"
    op: "MatMul"
    input: "model/Tanh"
    input: "model/pi_fc1/w/read"
    attr {
      key: "T"
      value {
        type: DT_FLOAT
      }
    }
    attr {
      key: "_output_shapes"
      value {
        list {
          shape {
            dim {
              size: -1
            }
            dim {
              size: 2
            }
          }
        }
      }
    }
    attr {
      key: "transpose_a"
      value {
        b: false
      }
    }
    attr {
      key: "transpose_b"
      value {
        b: false
      }
    }
  }
  node {
    name: "model/pi_fc1/Add"
    op: "Add"
    input: "model/pi_fc1/MatMul"
    input: "model/pi_fc1/b/read"
    attr {
      key: "T"
      value {
        type: DT_FLOAT
      }
    }
    attr {
      key: "_output_shapes"
      value {
        list {
          shape {
            dim {
              size: -1
            }
            dim {
              size: 2
            }
          }
        }
      }
    }
  }
  node {
    name: "model/Tanh_2"
    op: "Tanh"
    input: "model/pi_fc1/Add"
    attr {
      key: "T"
      value {
        type: DT_FLOAT
      }
    }
    attr {
      key: "_output_shapes"
      value {
        list {
          shape {
            dim {
              size: -1
            }
            dim {
              size: 2
            }
          }
        }
      }
    }
  }
  node {
    name: "model/vf_fc1/w/Initializer/initial_value"
    op: "Const"
    attr {
      key: "_class"
      value {
        list {
          s: "loc:@model/vf_fc1/w"
        }
      }
    }
    attr {
      key: "_output_shapes"
      value {
        list {
          shape {
            dim {
              size: 2
            }
            dim {
              size: 2
            }
          }
        }
      }
    }
    attr {
      key: "dtype"
      value {
        type: DT_FLOAT
      }
    }
    attr {
      key: "value"
      value {
        tensor {
          dtype: DT_FLOAT
          tensor_shape {
            dim {
              size: 2
            }
            dim {
              size: 2
            }
          }
          tensor_content: "\035\377\234\277\03294?\03294?\035\377\234?"
        }
      }
    }
  }
  node {
    name: "model/vf_fc1/w"
    op: "VariableV2"
    attr {
      key: "_class"
      value {
        list {
          s: "loc:@model/vf_fc1/w"
        }
      }
    }
    attr {
      key: "_output_shapes"
      value {
        list {
          shape {
            dim {
              size: 2
            }
            dim {
              size: 2
            }
          }
        }
      }
    }
    attr {
      key: "container"
      value {
        s: ""
      }
    }
    attr {
      key: "dtype"
      value {
        type: DT_FLOAT
      }
    }
    attr {
      key: "shape"
      value {
        shape {
          dim {
            size: 2
          }
          dim {
            size: 2
          }
        }
      }
    }
    attr {
      key: "shared_name"
      value {
        s: ""
      }
    }
  }
  node {
    name: "model/vf_fc1/w/Assign"
    op: "Assign"
    input: "model/vf_fc1/w"
    input: "model/vf_fc1/w/Initializer/initial_value"
    attr {
      key: "T"
      value {
        type: DT_FLOAT
      }
    }
    attr {
      key: "_class"
      value {
        list {
          s: "loc:@model/vf_fc1/w"
        }
      }
    }
    attr {
      key: "_output_shapes"
      value {
        list {
          shape {
            dim {
              size: 2
            }
            dim {
              size: 2
            }
          }
        }
      }
    }
    attr {
      key: "use_locking"
      value {
        b: true
      }
    }
    attr {
      key: "validate_shape"
      value {
        b: true
      }
    }
  }
  node {
    name: "model/vf_fc1/w/read"
    op: "Identity"
    input: "model/vf_fc1/w"
    attr {
      key: "T"
      value {
        type: DT_FLOAT
      }
    }
    attr {
      key: "_class"
      value {
        list {
          s: "loc:@model/vf_fc1/w"
        }
      }
    }
    attr {
      key: "_output_shapes"
      value {
        list {
          shape {
            dim {
              size: 2
            }
            dim {
              size: 2
            }
          }
        }
      }
    }
  }
  node {
    name: "model/vf_fc1/b/Initializer/Const"
    op: "Const"
    attr {
      key: "_class"
      value {
        list {
          s: "loc:@model/vf_fc1/b"
        }
      }
    }
    attr {
      key: "_output_shapes"
      value {
        list {
          shape {
            dim {
              size: 2
            }
          }
        }
      }
    }
    attr {
      key: "dtype"
      value {
        type: DT_FLOAT
      }
    }
    attr {
      key: "value"
      value {
        tensor {
          dtype: DT_FLOAT
          tensor_shape {
            dim {
              size: 2
            }
          }
          float_val: 0.0
        }
      }
    }
  }
  node {
    name: "model/vf_fc1/b"
    op: "VariableV2"
    attr {
      key: "_class"
      value {
        list {
          s: "loc:@model/vf_fc1/b"
        }
      }
    }
    attr {
      key: "_output_shapes"
      value {
        list {
          shape {
            dim {
              size: 2
            }
          }
        }
      }
    }
    attr {
      key: "container"
      value {
        s: ""
      }
    }
    attr {
      key: "dtype"
      value {
        type: DT_FLOAT
      }
    }
    attr {
      key: "shape"
      value {
        shape {
          dim {
            size: 2
          }
        }
      }
    }
    attr {
      key: "shared_name"
      value {
        s: ""
      }
    }
  }
  node {
    name: "model/vf_fc1/b/Assign"
    op: "Assign"
    input: "model/vf_fc1/b"
    input: "model/vf_fc1/b/Initializer/Const"
    attr {
      key: "T"
      value {
        type: DT_FLOAT
      }
    }
    attr {
      key: "_class"
      value {
        list {
          s: "loc:@model/vf_fc1/b"
        }
      }
    }
    attr {
      key: "_output_shapes"
      value {
        list {
          shape {
            dim {
              size: 2
            }
          }
        }
      }
    }
    attr {
      key: "use_locking"
      value {
        b: true
      }
    }
    attr {
      key: "validate_shape"
      value {
        b: true
      }
    }
  }
  node {
    name: "model/vf_fc1/b/read"
    op: "Identity"
    input: "model/vf_fc1/b"
    attr {
      key: "T"
      value {
        type: DT_FLOAT
      }
    }
    attr {
      key: "_class"
      value {
        list {
          s: "loc:@model/vf_fc1/b"
        }
      }
    }
    attr {
      key: "_output_shapes"
      value {
        list {
          shape {
            dim {
              size: 2
            }
          }
        }
      }
    }
  }
  node {
    name: "model/vf_fc1/MatMul"
    op: "MatMul"
    input: "model/Tanh_1"
    input: "model/vf_fc1/w/read"
    attr {
      key: "T"
      value {
        type: DT_FLOAT
      }
    }
    attr {
      key: "_output_shapes"
      value {
        list {
          shape {
            dim {
              size: -1
            }
            dim {
              size: 2
            }
          }
        }
      }
    }
    attr {
      key: "transpose_a"
      value {
        b: false
      }
    }
    attr {
      key: "transpose_b"
      value {
        b: false
      }
    }
  }
  node {
    name: "model/vf_fc1/Add"
    op: "Add"
    input: "model/vf_fc1/MatMul"
    input: "model/vf_fc1/b/read"
    attr {
      key: "T"
      value {
        type: DT_FLOAT
      }
    }
    attr {
      key: "_output_shapes"
      value {
        list {
          shape {
            dim {
              size: -1
            }
            dim {
              size: 2
            }
          }
        }
      }
    }
  }
  node {
    name: "model/Tanh_3"
    op: "Tanh"
    input: "model/vf_fc1/Add"
    attr {
      key: "T"
      value {
        type: DT_FLOAT
      }
    }
    attr {
      key: "_output_shapes"
      value {
        list {
          shape {
            dim {
              size: -1
            }
            dim {
              size: 2
            }
          }
        }
      }
    }
  }
  node {
    name: "model/vf/w/Initializer/initial_value"
    op: "Const"
    attr {
      key: "_class"
      value {
        list {
          s: "loc:@model/vf/w"
        }
      }
    }
    attr {
      key: "_output_shapes"
      value {
        list {
          shape {
            dim {
              size: 2
            }
            dim {
              size: 1
            }
          }
        }
      }
    }
    attr {
      key: "dtype"
      value {
        type: DT_FLOAT
      }
    }
    attr {
      key: "value"
      value {
        tensor {
          dtype: DT_FLOAT
          tensor_shape {
            dim {
              size: 2
            }
            dim {
              size: 1
            }
          }
          tensor_content: "\014\220F\277\026\225!?"
        }
      }
    }
  }
  node {
    name: "model/vf/w"
    op: "VariableV2"
    attr {
      key: "_class"
      value {
        list {
          s: "loc:@model/vf/w"
        }
      }
    }
    attr {
      key: "_output_shapes"
      value {
        list {
          shape {
            dim {
              size: 2
            }
            dim {
              size: 1
            }
          }
        }
      }
    }
    attr {
      key: "container"
      value {
        s: ""
      }
    }
    attr {
      key: "dtype"
      value {
        type: DT_FLOAT
      }
    }
    attr {
      key: "shape"
      value {
        shape {
          dim {
            size: 2
          }
          dim {
            size: 1
          }
        }
      }
    }
    attr {
      key: "shared_name"
      value {
        s: ""
      }
    }
  }
  node {
    name: "model/vf/w/Assign"
    op: "Assign"
    input: "model/vf/w"
    input: "model/vf/w/Initializer/initial_value"
    attr {
      key: "T"
      value {
        type: DT_FLOAT
      }
    }
    attr {
      key: "_class"
      value {
        list {
          s: "loc:@model/vf/w"
        }
      }
    }
    attr {
      key: "_output_shapes"
      value {
        list {
          shape {
            dim {
              size: 2
            }
            dim {
              size: 1
            }
          }
        }
      }
    }
    attr {
      key: "use_locking"
      value {
        b: true
      }
    }
    attr {
      key: "validate_shape"
      value {
        b: true
      }
    }
  }
  node {
    name: "model/vf/w/read"
    op: "Identity"
    input: "model/vf/w"
    attr {
      key: "T"
      value {
        type: DT_FLOAT
      }
    }
    attr {
      key: "_class"
      value {
        list {
          s: "loc:@model/vf/w"
        }
      }
    }
    attr {
      key: "_output_shapes"
      value {
        list {
          shape {
            dim {
              size: 2
            }
            dim {
              size: 1
            }
          }
        }
      }
    }
  }
  node {
    name: "model/vf/b/Initializer/Const"
    op: "Const"
    attr {
      key: "_class"
      value {
        list {
          s: "loc:@model/vf/b"
        }
      }
    }
    attr {
      key: "_output_shapes"
      value {
        list {
          shape {
            dim {
              size: 1
            }
          }
        }
      }
    }
    attr {
      key: "dtype"
      value {
        type: DT_FLOAT
      }
    }
    attr {
      key: "value"
      value {
        tensor {
          dtype: DT_FLOAT
          tensor_shape {
            dim {
              size: 1
            }
          }
          float_val: 0.0
        }
      }
    }
  }
  node {
    name: "model/vf/b"
    op: "VariableV2"
    attr {
      key: "_class"
      value {
        list {
          s: "loc:@model/vf/b"
        }
      }
    }
    attr {
      key: "_output_shapes"
      value {
        list {
          shape {
            dim {
              size: 1
            }
          }
        }
      }
    }
    attr {
      key: "container"
      value {
        s: ""
      }
    }
    attr {
      key: "dtype"
      value {
        type: DT_FLOAT
      }
    }
    attr {
      key: "shape"
      value {
        shape {
          dim {
            size: 1
          }
        }
      }
    }
    attr {
      key: "shared_name"
      value {
        s: ""
      }
    }
  }
  node {
    name: "model/vf/b/Assign"
    op: "Assign"
    input: "model/vf/b"
    input: "model/vf/b/Initializer/Const"
    attr {
      key: "T"
      value {
        type: DT_FLOAT
      }
    }
    attr {
      key: "_class"
      value {
        list {
          s: "loc:@model/vf/b"
        }
      }
    }
    attr {
      key: "_output_shapes"
      value {
        list {
          shape {
            dim {
              size: 1
            }
          }
        }
      }
    }
    attr {
      key: "use_locking"
      value {
        b: true
      }
    }
    attr {
      key: "validate_shape"
      value {
        b: true
      }
    }
  }
  node {
    name: "model/vf/b/read"
    op: "Identity"
    input: "model/vf/b"
    attr {
      key: "T"
      value {
        type: DT_FLOAT
      }
    }
    attr {
      key: "_class"
      value {
        list {
          s: "loc:@model/vf/b"
        }
      }
    }
    attr {
      key: "_output_shapes"
      value {
        list {
          shape {
            dim {
              size: 1
            }
          }
        }
      }
    }
  }
  node {
    name: "model/vf/MatMul"
    op: "MatMul"
    input: "model/Tanh_3"
    input: "model/vf/w/read"
    attr {
      key: "T"
      value {
        type: DT_FLOAT
      }
    }
    attr {
      key: "_output_shapes"
      value {
        list {
          shape {
            dim {
              size: -1
            }
            dim {
              size: 1
            }
          }
        }
      }
    }
    attr {
      key: "transpose_a"
      value {
        b: false
      }
    }
    attr {
      key: "transpose_b"
      value {
        b: false
      }
    }
  }
  node {
    name: "model/vf/_value_fn"
    op: "Add"
    input: "model/vf/MatMul"
    input: "model/vf/b/read"
    attr {
      key: "T"
      value {
        type: DT_FLOAT
      }
    }
    attr {
      key: "_output_shapes"
      value {
        list {
          shape {
            dim {
              size: -1
            }
            dim {
              size: 1
            }
          }
        }
      }
    }
  }
  node {
    name: "model/pi/w/Initializer/initial_value"
    op: "Const"
    attr {
      key: "_class"
      value {
        list {
          s: "loc:@model/pi/w"
        }
      }
    }
    attr {
      key: "_output_shapes"
      value {
        list {
          shape {
            dim {
              size: 2
            }
            dim {
              size: 18
            }
          }
        }
      }
    }
    attr {
      key: "dtype"
      value {
        type: DT_FLOAT
      }
    }
    attr {
      key: "value"
      value {
        tensor {
          dtype: DT_FLOAT
          tensor_shape {
            dim {
              size: 2
            }
            dim {
              size: 18
            }
          }
          tensor_content: "…"
        }
      }
    }
  }
  node {
    name: "model/pi/w"
    op: "VariableV2"
    attr {
      key: "_class"
      value {
        list {
          s: "loc:@model/pi/w"
        }
      }
    }
    attr {
      key: "_output_shapes"
      value {
        list {
          shape {
            dim {
              size: 2
            }
            dim {
              size: 18
            }
          }
        }
      }
    }
    attr {
      key: "container"
      value {
        s: ""
      }
    }
    attr {
      key: "dtype"
      value {
        type: DT_FLOAT
      }
    }
    attr {
      key: "shape"
      value {
        shape {
          dim {
            size: 2
          }
          dim {
            size: 18
          }
        }
      }
    }
    attr {
      key: "shared_name"
      value {
        s: ""
      }
    }
  }
  node {
    name: "model/pi/w/Assign"
    op: "Assign"
    input: "model/pi/w"
    input: "model/pi/w/Initializer/initial_value"
    attr {
      key: "T"
      value {
        type: DT_FLOAT
      }
    }
    attr {
      key: "_class"
      value {
        list {
          s: "loc:@model/pi/w"
        }
      }
    }
    attr {
      key: "_output_shapes"
      value {
        list {
          shape {
            dim {
              size: 2
            }
            dim {
              size: 18
            }
          }
        }
      }
    }
    attr {
      key: "use_locking"
      value {
        b: true
      }
    }
    attr {
      key: "validate_shape"
      value {
        b: true
      }
    }
  }
  node {
    name: "model/pi/w/read"
    op: "Identity"
    input: "model/pi/w"
    attr {
      key: "T"
      value {
        type: DT_FLOAT
      }
    }
    attr {
      key: "_class"
      value {
        list {
          s: "loc:@model/pi/w"
        }
      }
    }
    attr {
      key: "_output_shapes"
      value {
        list {
          shape {
            dim {
              size: 2
            }
            dim {
              size: 18
            }
          }
        }
      }
    }
  }
  node {
    name: "model/pi/b/Initializer/Const"
    op: "Const"
    attr {
      key: "_class"
      value {
        list {
          s: "loc:@model/pi/b"
        }
      }
    }
    attr {
      key: "_output_shapes"
      value {
        list {
          shape {
            dim {
              size: 18
            }
          }
        }
      }
    }
    attr {
      key: "dtype"
      value {
        type: DT_FLOAT
      }
    }
    attr {
      key: "value"
      value {
        tensor {
          dtype: DT_FLOAT
          tensor_shape {
            dim {
              size: 18
            }
          }
          float_val: 0.0
        }
      }
    }
  }
  node {
    name: "model/pi/b"
    op: "VariableV2"
    attr {
      key: "_class"
      value {
        list {
          s: "loc:@model/pi/b"
        }
      }
    }
    attr {
      key: "_output_shapes"
      value {
        list {
          shape {
            dim {
              size: 18
            }
          }
        }
      }
    }
    attr {
      key: "container"
      value {
        s: ""
      }
    }
    attr {
      key: "dtype"
      value {
        type: DT_FLOAT
      }
    }
    attr {
      key: "shape"
      value {
        shape {
          dim {
            size: 18
          }
        }
      }
    }
    attr {
      key: "shared_name"
      value {
        s: ""
      }
    }
  }
  node {
    name: "model/pi/b/Assign"
    op: "Assign"
    input: "model/pi/b"
    input: "model/pi/b/Initializer/Const"
    attr {
      key: "T"
      value {
        type: DT_FLOAT
      }
    }
    attr {
      key: "_class"
      value {
        list {
          s: "loc:@model/pi/b"
        }
      }
    }
    attr {
      key: "_output_shapes"
      value {
        list {
          shape {
            dim {
              size: 18
            }
          }
        }
      }
    }
    attr {
      key: "use_locking"
      value {
        b: true
      }
    }
    attr {
      key: "validate_shape"
      value {
        b: true
      }
    }
  }
  node {
    name: "model/pi/b/read"
    op: "Identity"
    input: "model/pi/b"
    attr {
      key: "T"
      value {
        type: DT_FLOAT
      }
    }
    attr {
      key: "_class"
      value {
        list {
          s: "loc:@model/pi/b"
        }
      }
    }
    attr {
      key: "_output_shapes"
      value {
        list {
          shape {
            dim {
              size: 18
            }
          }
        }
      }
    }
  }
  node {
    name: "model/pi/MatMul"
    op: "MatMul"
    input: "model/Tanh_2"
    input: "model/pi/w/read"
    attr {
      key: "T"
      value {
        type: DT_FLOAT
      }
    }
    attr {
      key: "_output_shapes"
      value {
        list {
          shape {
            dim {
              size: -1
            }
            dim {
              size: 18
            }
          }
        }
      }
    }
    attr {
      key: "transpose_a"
      value {
        b: false
      }
    }
    attr {
      key: "transpose_b"
      value {
        b: false
      }
    }
  }
  node {
    name: "model/pi/_policy"
    op: "Add"
    input: "model/pi/MatMul"
    input: "model/pi/b/read"
    attr {
      key: "T"
      value {
        type: DT_FLOAT
      }
    }
    attr {
      key: "_output_shapes"
      value {
        list {
          shape {
            dim {
              size: -1
            }
            dim {
              size: 18
            }
          }
        }
      }
    }
  }
  node {
    name: "model/pi/logstd/Initializer/zeros"
    op: "Const"
    attr {
      key: "_class"
      value {
        list {
          s: "loc:@model/pi/logstd"
        }
      }
    }
    attr {
      key: "_output_shapes"
      value {
        list {
          shape {
            dim {
              size: 1
            }
            dim {
              size: 18
            }
          }
        }
      }
    }
    attr {
      key: "dtype"
      value {
        type: DT_FLOAT
      }
    }
    attr {
      key: "value"
      value {
        tensor {
          dtype: DT_FLOAT
          tensor_shape {
            dim {
              size: 1
            }
            dim {
              size: 18
            }
          }
          float_val: 0.0
        }
      }
    }
  }
  node {
    name: "model/pi/logstd"
    op: "VariableV2"
    attr {
      key: "_class"
      value {
        list {
          s: "loc:@model/pi/logstd"
        }
      }
    }
    attr {
      key: "_output_shapes"
      value {
        list {
          shape {
            dim {
              size: 1
            }
            dim {
              size: 18
            }
          }
        }
      }
    }
    attr {
      key: "container"
      value {
        s: ""
      }
    }
    attr {
      key: "dtype"
      value {
        type: DT_FLOAT
      }
    }
    attr {
      key: "shape"
      value {
        shape {
          dim {
            size: 1
          }
          dim {
            size: 18
          }
        }
      }
    }
    attr {
      key: "shared_name"
      value {
        s: ""
      }
    }
  }
  node {
    name: "model/pi/logstd/Assign"
    op: "Assign"
    input: "model/pi/logstd"
    input: "model/pi/logstd/Initializer/zeros"
    attr {
      key: "T"
      value {
        type: DT_FLOAT
      }
    }
    attr {
      key: "_class"
      value {
        list {
          s: "loc:@model/pi/logstd"
        }
      }
    }
    attr {
      key: "_output_shapes"
      value {
        list {
          shape {
            dim {
              size: 1
            }
            dim {
              size: 18
            }
          }
        }
      }
    }
    attr {
      key: "use_locking"
      value {
        b: true
      }
    }
    attr {
      key: "validate_shape"
      value {
        b: true
      }
    }
  }
  node {
    name: "model/pi/logstd/read"
    op: "Identity"
    input: "model/pi/logstd"
    attr {
      key: "T"
      value {
        type: DT_FLOAT
      }
    }
    attr {
      key: "_class"
      value {
        list {
          s: "loc:@model/pi/logstd"
        }
      }
    }
    attr {
      key: "_output_shapes"
      value {
        list {
          shape {
            dim {
              size: 1
            }
            dim {
              size: 18
            }
          }
        }
      }
    }
  }
  node {
    name: "model/mul/y"
    op: "Const"
    attr {
      key: "_output_shapes"
      value {
        list {
          shape {
          }
        }
      }
    }
    attr {
      key: "dtype"
      value {
        type: DT_FLOAT
      }
    }
    attr {
      key: "value"
      value {
        tensor {
          dtype: DT_FLOAT
          tensor_shape {
          }
          float_val: 0.0
        }
      }
    }
  }
  node {
    name: "model/mul"
    op: "Mul"
    input: "model/pi/_policy"
    input: "model/mul/y"
    attr {
      key: "T"
      value {
        type: DT_FLOAT
      }
    }
    attr {
      key: "_output_shapes"
      value {
        list {
          shape {
            dim {
              size: -1
            }
            dim {
              size: 18
            }
          }
        }
      }
    }
  }
  node {
    name: "model/add"
    op: "Add"
    input: "model/mul"
    input: "model/pi/logstd/read"
    attr {
      key: "T"
      value {
        type: DT_FLOAT
      }
    }
    attr {
      key: "_output_shapes"
      value {
        list {
          shape {
            dim {
              size: -1
            }
            dim {
              size: 18
            }
          }
        }
      }
    }
  }
  node {
    name: "model/pi/pdparam/axis"
    op: "Const"
    attr {
      key: "_output_shapes"
      value {
        list {
          shape {
          }
        }
      }
    }
    attr {
      key: "dtype"
      value {
        type: DT_INT32
      }
    }
    attr {
      key: "value"
      value {
        tensor {
          dtype: DT_INT32
          tensor_shape {
          }
          int_val: 1
        }
      }
    }
  }
  node {
    name: "model/pi/pdparam"
    op: "ConcatV2"
    input: "model/pi/_policy"
    input: "model/add"
    input: "model/pi/pdparam/axis"
    attr {
      key: "N"
      value {
        i: 2
      }
    }
    attr {
      key: "T"
      value {
        type: DT_FLOAT
      }
    }
    attr {
      key: "Tidx"
      value {
        type: DT_INT32
      }
    }
    attr {
      key: "_output_shapes"
      value {
        list {
          shape {
            dim {
              size: -1
            }
            dim {
              size: 36
            }
          }
        }
      }
    }
  }
  node {
    name: "model/q/w/Initializer/initial_value"
    op: "Const"
    attr {
      key: "_class"
      value {
        list {
          s: "loc:@model/q/w"
        }
      }
    }
    attr {
      key: "_output_shapes"
      value {
        list {
          shape {
            dim {
              size: 2
            }
            dim {
              size: 18
            }
          }
        }
      }
    }
    attr {
      key: "dtype"
      value {
        type: DT_FLOAT
      }
    }
    attr {
      key: "value"
      value {
        tensor {
          dtype: DT_FLOAT
          tensor_shape {
            dim {
              size: 2
            }
            dim {
              size: 18
            }
          }
          tensor_content: "…"
        }
      }
    }
  }
  node {
    name: "model/q/w"
    op: "VariableV2"
    attr {
      key: "_class"
      value {
        list {
          s: "loc:@model/q/w"
        }
      }
    }
    attr {
      key: "_output_shapes"
      value {
        list {
          shape {
            dim {
              size: 2
            }
            dim {
              size: 18
            }
          }
        }
      }
    }
    attr {
      key: "container"
      value {
        s: ""
      }
    }
    attr {
      key: "dtype"
      value {
        type: DT_FLOAT
      }
    }
    attr {
      key: "shape"
      value {
        shape {
          dim {
            size: 2
          }
          dim {
            size: 18
          }
        }
      }
    }
    attr {
      key: "shared_name"
      value {
        s: ""
      }
    }
  }
  node {
    name: "model/q/w/Assign"
    op: "Assign"
    input: "model/q/w"
    input: "model/q/w/Initializer/initial_value"
    attr {
      key: "T"
      value {
        type: DT_FLOAT
      }
    }
    attr {
      key: "_class"
      value {
        list {
          s: "loc:@model/q/w"
        }
      }
    }
    attr {
      key: "_output_shapes"
      value {
        list {
          shape {
            dim {
              size: 2
            }
            dim {
              size: 18
            }
          }
        }
      }
    }
    attr {
      key: "use_locking"
      value {
        b: true
      }
    }
    attr {
      key: "validate_shape"
      value {
        b: true
      }
    }
  }
  node {
    name: "model/q/w/read"
    op: "Identity"
    input: "model/q/w"
    attr {
      key: "T"
      value {
        type: DT_FLOAT
      }
    }
    attr {
      key: "_class"
      value {
        list {
          s: "loc:@model/q/w"
        }
      }
    }
    attr {
      key: "_output_shapes"
      value {
        list {
          shape {
            dim {
              size: 2
            }
            dim {
              size: 18
            }
          }
        }
      }
    }
  }
  node {
    name: "model/q/b/Initializer/Const"
    op: "Const"
    attr {
      key: "_class"
      value {
        list {
          s: "loc:@model/q/b"
        }
      }
    }
    attr {
      key: "_output_shapes"
      value {
        list {
          shape {
            dim {
              size: 18
            }
          }
        }
      }
    }
    attr {
      key: "dtype"
      value {
        type: DT_FLOAT
      }
    }
    attr {
      key: "value"
      value {
        tensor {
          dtype: DT_FLOAT
          tensor_shape {
            dim {
              size: 18
            }
          }
          float_val: 0.0
        }
      }
    }
  }
  node {
    name: "model/q/b"
    op: "VariableV2"
    attr {
      key: "_class"
      value {
        list {
          s: "loc:@model/q/b"
        }
      }
    }
    attr {
      key: "_output_shapes"
      value {
        list {
          shape {
            dim {
              size: 18
            }
          }
        }
      }
    }
    attr {
      key: "container"
      value {
        s: ""
      }
    }
    attr {
      key: "dtype"
      value {
        type: DT_FLOAT
      }
    }
    attr {
      key: "shape"
      value {
        shape {
          dim {
            size: 18
          }
        }
      }
    }
    attr {
      key: "shared_name"
      value {
        s: ""
      }
    }
  }
  node {
    name: "model/q/b/Assign"
    op: "Assign"
    input: "model/q/b"
    input: "model/q/b/Initializer/Const"
    attr {
      key: "T"
      value {
        type: DT_FLOAT
      }
    }
    attr {
      key: "_class"
      value {
        list {
          s: "loc:@model/q/b"
        }
      }
    }
    attr {
      key: "_output_shapes"
      value {
        list {
          shape {
            dim {
              size: 18
            }
          }
        }
      }
    }
    attr {
      key: "use_locking"
      value {
        b: true
      }
    }
    attr {
      key: "validate_shape"
      value {
        b: true
      }
    }
  }
  node {
    name: "model/q/b/read"
    op: "Identity"
    input: "model/q/b"
    attr {
      key: "T"
      value {
        type: DT_FLOAT
      }
    }
    attr {
      key: "_class"
      value {
        list {
          s: "loc:@model/q/b"
        }
      }
    }
    attr {
      key: "_output_shapes"
      value {
        list {
          shape {
            dim {
              size: 18
            }
          }
        }
      }
    }
  }
  node {
    name: "model/q/MatMul"
    op: "MatMul"
    input: "model/Tanh_3"
    input: "model/q/w/read"
    attr {
      key: "T"
      value {
        type: DT_FLOAT
      }
    }
    attr {
      key: "_output_shapes"
      value {
        list {
          shape {
            dim {
              size: -1
            }
            dim {
              size: 18
            }
          }
        }
      }
    }
    attr {
      key: "transpose_a"
      value {
        b: false
      }
    }
    attr {
      key: "transpose_b"
      value {
        b: false
      }
    }
  }
  node {
    name: "model/q/q_value"
    op: "Add"
    input: "model/q/MatMul"
    input: "model/q/b/read"
    attr {
      key: "T"
      value {
        type: DT_FLOAT
      }
    }
    attr {
      key: "_output_shapes"
      value {
        list {
          shape {
            dim {
              size: -1
            }
            dim {
              size: 18
            }
          }
        }
      }
    }
  }
  node {
    name: "model/Const"
    op: "Const"
    attr {
      key: "_output_shapes"
      value {
        list {
          shape {
          }
        }
      }
    }
    attr {
      key: "dtype"
      value {
        type: DT_INT32
      }
    }
    attr {
      key: "value"
      value {
        tensor {
          dtype: DT_INT32
          tensor_shape {
          }
          int_val: 2
        }
      }
    }
  }
  node {
    name: "model/DiagGaussianProbabilityDistribution/split_dim"
    op: "Const"
    attr {
      key: "_output_shapes"
      value {
        list {
          shape {
          }
        }
      }
    }
    attr {
      key: "dtype"
      value {
        type: DT_INT32
      }
    }
    attr {
      key: "value"
      value {
        tensor {
          dtype: DT_INT32
          tensor_shape {
          }
          int_val: 1
        }
      }
    }
  }
  node {
    name: "model/DiagGaussianProbabilityDistribution"
    op: "Split"
    input: "model/DiagGaussianProbabilityDistribution/split_dim"
    input: "model/pi/pdparam"
    attr {
      key: "T"
      value {
        type: DT_FLOAT
      }
    }
    attr {
      key: "_output_shapes"
      value {
        list {
          shape {
            dim {
              size: -1
            }
            dim {
              size: 18
            }
          }
          shape {
            dim {
              size: -1
            }
            dim {
              size: 18
            }
          }
        }
      }
    }
    attr {
      key: "num_split"
      value {
        i: 2
      }
    }
  }
  node {
    name: "model/std"
    op: "Exp"
    input: "model/DiagGaussianProbabilityDistribution:1"
    attr {
      key: "T"
      value {
        type: DT_FLOAT
      }
    }
    attr {
      key: "_output_shapes"
      value {
        list {
          shape {
            dim {
              size: -1
            }
            dim {
              size: 18
            }
          }
        }
      }
    }
  }
  node {
    name: "output/Shape"
    op: "Shape"
    input: "model/DiagGaussianProbabilityDistribution"
    attr {
      key: "T"
      value {
        type: DT_FLOAT
      }
    }
    attr {
      key: "_output_shapes"
      value {
        list {
          shape {
            dim {
              size: 2
            }
          }
        }
      }
    }
    attr {
      key: "out_type"
      value {
        type: DT_INT32
      }
    }
  }
  node {
    name: "output/random_normal/mean"
    op: "Const"
    attr {
      key: "_output_shapes"
      value {
        list {
          shape {
          }
        }
      }
    }
    attr {
      key: "dtype"
      value {
        type: DT_FLOAT
      }
    }
    attr {
      key: "value"
      value {
        tensor {
          dtype: DT_FLOAT
          tensor_shape {
          }
          float_val: 0.0
        }
      }
    }
  }
  node {
    name: "output/random_normal/stddev"
    op: "Const"
    attr {
      key: "_output_shapes"
      value {
        list {
          shape {
          }
        }
      }
    }
    attr {
      key: "dtype"
      value {
        type: DT_FLOAT
      }
    }
    attr {
      key: "value"
      value {
        tensor {
          dtype: DT_FLOAT
          tensor_shape {
          }
          float_val: 1.0
        }
      }
    }
  }
  node {
    name: "output/random_normal/RandomStandardNormal"
    op: "RandomStandardNormal"
    input: "output/Shape"
    attr {
      key: "T"
      value {
        type: DT_INT32
      }
    }
    attr {
      key: "_output_shapes"
      value {
        list {
          shape {
            dim {
              size: -1
            }
            dim {
              size: 18
            }
          }
        }
      }
    }
    attr {
      key: "dtype"
      value {
        type: DT_FLOAT
      }
    }
    attr {
      key: "seed"
      value {
        i: 0
      }
    }
    attr {
      key: "seed2"
      value {
        i: 0
      }
    }
  }
  node {
    name: "output/random_normal/mul"
    op: "Mul"
    input: "output/random_normal/RandomStandardNormal"
    input: "output/random_normal/stddev"
    attr {
      key: "T"
      value {
        type: DT_FLOAT
      }
    }
    attr {
      key: "_output_shapes"
      value {
        list {
          shape {
            dim {
              size: -1
            }
            dim {
              size: 18
            }
          }
        }
      }
    }
  }
  node {
    name: "output/random_normal"
    op: "Add"
    input: "output/random_normal/mul"
    input: "output/random_normal/mean"
    attr {
      key: "T"
      value {
        type: DT_FLOAT
      }
    }
    attr {
      key: "_output_shapes"
      value {
        list {
          shape {
            dim {
              size: -1
            }
            dim {
              size: 18
            }
          }
        }
      }
    }
  }
  node {
    name: "output/mul"
    op: "Mul"
    input: "model/std"
    input: "output/random_normal"
    attr {
      key: "T"
      value {
        type: DT_FLOAT
      }
    }
    attr {
      key: "_output_shapes"
      value {
        list {
          shape {
            dim {
              size: -1
            }
            dim {
              size: 18
            }
          }
        }
      }
    }
  }
  node {
    name: "output/_action"
    op: "Add"
    input: "model/DiagGaussianProbabilityDistribution"
    input: "output/mul"
    attr {
      key: "T"
      value {
        type: DT_FLOAT
      }
    }
    attr {
      key: "_output_shapes"
      value {
        list {
          shape {
            dim {
              size: -1
            }
            dim {
              size: 18
            }
          }
        }
      }
    }
  }
  node {
    name: "output/_deterministic_action/y"
    op: "Const"
    attr {
      key: "_output_shapes"
      value {
        list {
          shape {
          }
        }
      }
    }
    attr {
      key: "dtype"
      value {
        type: DT_FLOAT
      }
    }
    attr {
      key: "value"
      value {
        tensor {
          dtype: DT_FLOAT
          tensor_shape {
          }
          float_val: 0.0
        }
      }
    }
  }
  node {
    name: "output/_deterministic_action"
    op: "Add"
    input: "model/DiagGaussianProbabilityDistribution"
    input: "output/_deterministic_action/y"
    attr {
      key: "T"
      value {
        type: DT_FLOAT
      }
    }
    attr {
      key: "_output_shapes"
      value {
        list {
          shape {
            dim {
              size: -1
            }
            dim {
              size: 18
            }
          }
        }
      }
    }
  }
  node {
    name: "output/sub"
    op: "Sub"
    input: "output/_action"
    input: "model/DiagGaussianProbabilityDistribution"
    attr {
      key: "T"
      value {
        type: DT_FLOAT
      }
    }
    attr {
      key: "_output_shapes"
      value {
        list {
          shape {
            dim {
              size: -1
            }
            dim {
              size: 18
            }
          }
        }
      }
    }
  }
  node {
    name: "output/truediv"
    op: "RealDiv"
    input: "output/sub"
    input: "model/std"
    attr {
      key: "T"
      value {
        type: DT_FLOAT
      }
    }
    attr {
      key: "_output_shapes"
      value {
        list {
          shape {
            dim {
              size: -1
            }
            dim {
              size: 18
            }
          }
        }
      }
    }
  }
  node {
    name: "output/Square"
    op: "Square"
    input: "output/truediv"
    attr {
      key: "T"
      value {
        type: DT_FLOAT
      }
    }
    attr {
      key: "_output_shapes"
      value {
        list {
          shape {
            dim {
              size: -1
            }
            dim {
              size: 18
            }
          }
        }
      }
    }
  }
  node {
    name: "output/Sum/reduction_indices"
    op: "Const"
    attr {
      key: "_output_shapes"
      value {
        list {
          shape {
          }
        }
      }
    }
    attr {
      key: "dtype"
      value {
        type: DT_INT32
      }
    }
    attr {
      key: "value"
      value {
        tensor {
          dtype: DT_INT32
          tensor_shape {
          }
          int_val: -1
        }
      }
    }
  }
  node {
    name: "output/Sum"
    op: "Sum"
    input: "output/Square"
    input: "output/Sum/reduction_indices"
    attr {
      key: "T"
      value {
        type: DT_FLOAT
      }
    }
    attr {
      key: "Tidx"
      value {
        type: DT_INT32
      }
    }
    attr {
      key: "_output_shapes"
      value {
        list {
          shape {
            dim {
              size: -1
            }
          }
        }
      }
    }
    attr {
      key: "keep_dims"
      value {
        b: false
      }
    }
  }
  node {
    name: "output/mul_1/x"
    op: "Const"
    attr {
      key: "_output_shapes"
      value {
        list {
          shape {
          }
        }
      }
    }
    attr {
      key: "dtype"
      value {
        type: DT_FLOAT
      }
    }
    attr {
      key: "value"
      value {
        tensor {
          dtype: DT_FLOAT
          tensor_shape {
          }
          float_val: 0.5
        }
      }
    }
  }
  node {
    name: "output/mul_1"
    op: "Mul"
    input: "output/mul_1/x"
    input: "output/Sum"
    attr {
      key: "T"
      value {
        type: DT_FLOAT
      }
    }
    attr {
      key: "_output_shapes"
      value {
        list {
          shape {
            dim {
              size: -1
            }
          }
        }
      }
    }
  }
  node {
    name: "output/Shape_1"
    op: "Shape"
    input: "output/_action"
    attr {
      key: "T"
      value {
        type: DT_FLOAT
      }
    }
    attr {
      key: "_output_shapes"
      value {
        list {
          shape {
            dim {
              size: 2
            }
          }
        }
      }
    }
    attr {
      key: "out_type"
      value {
        type: DT_INT32
      }
    }
  }
  node {
    name: "output/strided_slice/stack"
    op: "Const"
    attr {
      key: "_output_shapes"
      value {
        list {
          shape {
            dim {
              size: 1
            }
          }
        }
      }
    }
    attr {
      key: "dtype"
      value {
        type: DT_INT32
      }
    }
    attr {
      key: "value"
      value {
        tensor {
          dtype: DT_INT32
          tensor_shape {
            dim {
              size: 1
            }
          }
          int_val: -1
        }
      }
    }
  }
  node {
    name: "output/strided_slice/stack_1"
    op: "Const"
    attr {
      key: "_output_shapes"
      value {
        list {
          shape {
            dim {
              size: 1
            }
          }
        }
      }
    }
    attr {
      key: "dtype"
      value {
        type: DT_INT32
      }
    }
    attr {
      key: "value"
      value {
        tensor {
          dtype: DT_INT32
          tensor_shape {
            dim {
              size: 1
            }
          }
          int_val: 0
        }
      }
    }
  }
  node {
    name: "output/strided_slice/stack_2"
    op: "Const"
    attr {
      key: "_output_shapes"
      value {
        list {
          shape {
            dim {
              size: 1
            }
          }
        }
      }
    }
    attr {
      key: "dtype"
      value {
        type: DT_INT32
      }
    }
    attr {
      key: "value"
      value {
        tensor {
          dtype: DT_INT32
          tensor_shape {
            dim {
              size: 1
            }
          }
          int_val: 1
        }
      }
    }
  }
  node {
    name: "output/strided_slice"
    op: "StridedSlice"
    input: "output/Shape_1"
    input: "output/strided_slice/stack"
    input: "output/strided_slice/stack_1"
    input: "output/strided_slice/stack_2"
    attr {
      key: "Index"
      value {
        type: DT_INT32
      }
    }
    attr {
      key: "T"
      value {
        type: DT_INT32
      }
    }
    attr {
      key: "_output_shapes"
      value {
        list {
          shape {
          }
        }
      }
    }
    attr {
      key: "begin_mask"
      value {
        i: 0
      }
    }
    attr {
      key: "ellipsis_mask"
      value {
        i: 0
      }
    }
    attr {
      key: "end_mask"
      value {
        i: 0
      }
    }
    attr {
      key: "new_axis_mask"
      value {
        i: 0
      }
    }
    attr {
      key: "shrink_axis_mask"
      value {
        i: 1
      }
    }
  }
  node {
    name: "output/Cast"
    op: "Cast"
    input: "output/strided_slice"
    attr {
      key: "DstT"
      value {
        type: DT_FLOAT
      }
    }
    attr {
      key: "SrcT"
      value {
        type: DT_INT32
      }
    }
    attr {
      key: "Truncate"
      value {
        b: false
      }
    }
    attr {
      key: "_output_shapes"
      value {
        list {
          shape {
          }
        }
      }
    }
  }
  node {
    name: "output/mul_2/x"
    op: "Const"
    attr {
      key: "_output_shapes"
      value {
        list {
          shape {
          }
        }
      }
    }
    attr {
      key: "dtype"
      value {
        type: DT_FLOAT
      }
    }
    attr {
      key: "value"
      value {
        tensor {
          dtype: DT_FLOAT
          tensor_shape {
          }
          float_val: 0.9189385175704956
        }
      }
    }
  }
  node {
    name: "output/mul_2"
    op: "Mul"
    input: "output/mul_2/x"
    input: "output/Cast"
    attr {
      key: "T"
      value {
        type: DT_FLOAT
      }
    }
    attr {
      key: "_output_shapes"
      value {
        list {
          shape {
          }
        }
      }
    }
  }
  node {
    name: "output/Add"
    op: "Add"
    input: "output/mul_1"
    input: "output/mul_2"
    attr {
      key: "T"
      value {
        type: DT_FLOAT
      }
    }
    attr {
      key: "_output_shapes"
      value {
        list {
          shape {
            dim {
              size: -1
            }
          }
        }
      }
    }
  }
  node {
    name: "output/Sum_1/reduction_indices"
    op: "Const"
    attr {
      key: "_output_shapes"
      value {
        list {
          shape {
          }
        }
      }
    }
    attr {
      key: "dtype"
      value {
        type: DT_INT32
      }
    }
    attr {
      key: "value"
      value {
        tensor {
          dtype: DT_INT32
          tensor_shape {
          }
          int_val: -1
        }
      }
    }
  }
  node {
    name: "output/Sum_1"
    op: "Sum"
    input: "model/DiagGaussianProbabilityDistribution:1"
    input: "output/Sum_1/reduction_indices"
    attr {
      key: "T"
      value {
        type: DT_FLOAT
      }
    }
    attr {
      key: "Tidx"
      value {
        type: DT_INT32
      }
    }
    attr {
      key: "_output_shapes"
      value {
        list {
          shape {
            dim {
              size: -1
            }
          }
        }
      }
    }
    attr {
      key: "keep_dims"
      value {
        b: false
      }
    }
  }
  node {
    name: "output/_neglogp"
    op: "Add"
    input: "output/Add"
    input: "output/Sum_1"
    attr {
      key: "T"
      value {
        type: DT_FLOAT
      }
    }
    attr {
      key: "_output_shapes"
      value {
        list {
          shape {
            dim {
              size: -1
            }
          }
        }
      }
    }
  }
  node {
    name: "output/strided_slice_1/stack"
    op: "Const"
    attr {
      key: "_output_shapes"
      value {
        list {
          shape {
            dim {
              size: 2
            }
          }
        }
      }
    }
    attr {
      key: "dtype"
      value {
        type: DT_INT32
      }
    }
    attr {
      key: "value"
      value {
        tensor {
          dtype: DT_INT32
          tensor_shape {
            dim {
              size: 2
            }
          }
          tensor_content: "\000\000\000\000\000\000\000\000"
        }
      }
    }
  }
  node {
    name: "output/strided_slice_1/stack_1"
    op: "Const"
    attr {
      key: "_output_shapes"
      value {
        list {
          shape {
            dim {
              size: 2
            }
          }
        }
      }
    }
    attr {
      key: "dtype"
      value {
        type: DT_INT32
      }
    }
    attr {
      key: "value"
      value {
        tensor {
          dtype: DT_INT32
          tensor_shape {
            dim {
              size: 2
            }
          }
          tensor_content: "\000\000\000\000\001\000\000\000"
        }
      }
    }
  }
  node {
    name: "output/strided_slice_1/stack_2"
    op: "Const"
    attr {
      key: "_output_shapes"
      value {
        list {
          shape {
            dim {
              size: 2
            }
          }
        }
      }
    }
    attr {
      key: "dtype"
      value {
        type: DT_INT32
      }
    }
    attr {
      key: "value"
      value {
        tensor {
          dtype: DT_INT32
          tensor_shape {
            dim {
              size: 2
            }
          }
          tensor_content: "\001\000\000\000\001\000\000\000"
        }
      }
    }
  }
  node {
    name: "output/strided_slice_1"
    op: "StridedSlice"
    input: "model/vf/_value_fn"
    input: "output/strided_slice_1/stack"
    input: "output/strided_slice_1/stack_1"
    input: "output/strided_slice_1/stack_2"
    attr {
      key: "Index"
      value {
        type: DT_INT32
      }
    }
    attr {
      key: "T"
      value {
        type: DT_FLOAT
      }
    }
    attr {
      key: "_output_shapes"
      value {
        list {
          shape {
            dim {
              size: -1
            }
          }
        }
      }
    }
    attr {
      key: "begin_mask"
      value {
        i: 1
      }
    }
    attr {
      key: "ellipsis_mask"
      value {
        i: 0
      }
    }
    attr {
      key: "end_mask"
      value {
        i: 1
      }
    }
    attr {
      key: "new_axis_mask"
      value {
        i: 0
      }
    }
    attr {
      key: "shrink_axis_mask"
      value {
        i: 2
      }
    }
  }
  node {
    name: "output/_value_flat"
    op: "Identity"
    input: "output/strided_slice_1"
    attr {
      key: "T"
      value {
        type: DT_FLOAT
      }
    }
    attr {
      key: "_output_shapes"
      value {
        list {
          shape {
            dim {
              size: -1
            }
          }
        }
      }
    }
  }
  node {
    name: "train_model/input/Ob"
    op: "Placeholder"
    attr {
      key: "_output_shapes"
      value {
        list {
          shape {
            dim {
              size: -1
            }
            dim {
              size: 1
            }
          }
        }
      }
    }
    attr {
      key: "dtype"
      value {
        type: DT_FLOAT
      }
    }
    attr {
      key: "shape"
      value {
        shape {
          dim {
            size: -1
          }
          dim {
            size: 1
          }
        }
      }
    }
  }
  node {
    name: "train_model/input/processed_observations/y"
    op: "Const"
    attr {
      key: "_output_shapes"
      value {
        list {
          shape {
          }
        }
      }
    }
    attr {
      key: "dtype"
      value {
        type: DT_FLOAT
      }
    }
    attr {
      key: "value"
      value {
        tensor {
          dtype: DT_FLOAT
          tensor_shape {
          }
          float_val: 0.0
        }
      }
    }
  }
  node {
    name: "train_model/input/processed_observations"
    op: "Add"
    input: "train_model/input/Ob"
    input: "train_model/input/processed_observations/y"
    attr {
      key: "T"
      value {
        type: DT_FLOAT
      }
    }
    attr {
      key: "_output_shapes"
      value {
        list {
          shape {
            dim {
              size: -1
            }
            dim {
              size: 1
            }
          }
        }
      }
    }
  }
  node {
    name: "train_model/model/flatten/Shape"
    op: "Shape"
    input: "train_model/input/processed_observations"
    attr {
      key: "T"
      value {
        type: DT_FLOAT
      }
    }
    attr {
      key: "_output_shapes"
      value {
        list {
          shape {
            dim {
              size: 2
            }
          }
        }
      }
    }
    attr {
      key: "out_type"
      value {
        type: DT_INT32
      }
    }
  }
  node {
    name: "train_model/model/flatten/strided_slice/stack"
    op: "Const"
    attr {
      key: "_output_shapes"
      value {
        list {
          shape {
            dim {
              size: 1
            }
          }
        }
      }
    }
    attr {
      key: "dtype"
      value {
        type: DT_INT32
      }
    }
    attr {
      key: "value"
      value {
        tensor {
          dtype: DT_INT32
          tensor_shape {
            dim {
              size: 1
            }
          }
          int_val: 0
        }
      }
    }
  }
  node {
    name: "train_model/model/flatten/strided_slice/stack_1"
    op: "Const"
    attr {
      key: "_output_shapes"
      value {
        list {
          shape {
            dim {
              size: 1
            }
          }
        }
      }
    }
    attr {
      key: "dtype"
      value {
        type: DT_INT32
      }
    }
    attr {
      key: "value"
      value {
        tensor {
          dtype: DT_INT32
          tensor_shape {
            dim {
              size: 1
            }
          }
          int_val: 1
        }
      }
    }
  }
  node {
    name: "train_model/model/flatten/strided_slice/stack_2"
    op: "Const"
    attr {
      key: "_output_shapes"
      value {
        list {
          shape {
            dim {
              size: 1
            }
          }
        }
      }
    }
    attr {
      key: "dtype"
      value {
        type: DT_INT32
      }
    }
    attr {
      key: "value"
      value {
        tensor {
          dtype: DT_INT32
          tensor_shape {
            dim {
              size: 1
            }
          }
          int_val: 1
        }
      }
    }
  }
  node {
    name: "train_model/model/flatten/strided_slice"
    op: "StridedSlice"
    input: "train_model/model/flatten/Shape"
    input: "train_model/model/flatten/strided_slice/stack"
    input: "train_model/model/flatten/strided_slice/stack_1"
    input: "train_model/model/flatten/strided_slice/stack_2"
    attr {
      key: "Index"
      value {
        type: DT_INT32
      }
    }
    attr {
      key: "T"
      value {
        type: DT_INT32
      }
    }
    attr {
      key: "_output_shapes"
      value {
        list {
          shape {
          }
        }
      }
    }
    attr {
      key: "begin_mask"
      value {
        i: 0
      }
    }
    attr {
      key: "ellipsis_mask"
      value {
        i: 0
      }
    }
    attr {
      key: "end_mask"
      value {
        i: 0
      }
    }
    attr {
      key: "new_axis_mask"
      value {
        i: 0
      }
    }
    attr {
      key: "shrink_axis_mask"
      value {
        i: 1
      }
    }
  }
  node {
    name: "train_model/model/flatten/Reshape/shape/1"
    op: "Const"
    attr {
      key: "_output_shapes"
      value {
        list {
          shape {
          }
        }
      }
    }
    attr {
      key: "dtype"
      value {
        type: DT_INT32
      }
    }
    attr {
      key: "value"
      value {
        tensor {
          dtype: DT_INT32
          tensor_shape {
          }
          int_val: -1
        }
      }
    }
  }
  node {
    name: "train_model/model/flatten/Reshape/shape"
    op: "Pack"
    input: "train_model/model/flatten/strided_slice"
    input: "train_model/model/flatten/Reshape/shape/1"
    attr {
      key: "N"
      value {
        i: 2
      }
    }
    attr {
      key: "T"
      value {
        type: DT_INT32
      }
    }
    attr {
      key: "_output_shapes"
      value {
        list {
          shape {
            dim {
              size: 2
            }
          }
        }
      }
    }
    attr {
      key: "axis"
      value {
        i: 0
      }
    }
  }
  node {
    name: "train_model/model/flatten/Reshape"
    op: "Reshape"
    input: "train_model/input/processed_observations"
    input: "train_model/model/flatten/Reshape/shape"
    attr {
      key: "T"
      value {
        type: DT_FLOAT
      }
    }
    attr {
      key: "Tshape"
      value {
        type: DT_INT32
      }
    }
    attr {
      key: "_output_shapes"
      value {
        list {
          shape {
            dim {
              size: -1
            }
            dim {
              size: 1
            }
          }
        }
      }
    }
  }
  node {
    name: "train_model/model/pi_fc0/MatMul"
    op: "MatMul"
    input: "train_model/model/flatten/Reshape"
    input: "model/pi_fc0/w/read"
    attr {
      key: "T"
      value {
        type: DT_FLOAT
      }
    }
    attr {
      key: "_output_shapes"
      value {
        list {
          shape {
            dim {
              size: -1
            }
            dim {
              size: 2
            }
          }
        }
      }
    }
    attr {
      key: "transpose_a"
      value {
        b: false
      }
    }
    attr {
      key: "transpose_b"
      value {
        b: false
      }
    }
  }
  node {
    name: "train_model/model/pi_fc0/Add"
    op: "Add"
    input: "train_model/model/pi_fc0/MatMul"
    input: "model/pi_fc0/b/read"
    attr {
      key: "T"
      value {
        type: DT_FLOAT
      }
    }
    attr {
      key: "_output_shapes"
      value {
        list {
          shape {
            dim {
              size: -1
            }
            dim {
              size: 2
            }
          }
        }
      }
    }
  }
  node {
    name: "train_model/model/Tanh"
    op: "Tanh"
    input: "train_model/model/pi_fc0/Add"
    attr {
      key: "T"
      value {
        type: DT_FLOAT
      }
    }
    attr {
      key: "_output_shapes"
      value {
        list {
          shape {
            dim {
              size: -1
            }
            dim {
              size: 2
            }
          }
        }
      }
    }
  }
  node {
    name: "train_model/model/vf_fc0/MatMul"
    op: "MatMul"
    input: "train_model/model/flatten/Reshape"
    input: "model/vf_fc0/w/read"
    attr {
      key: "T"
      value {
        type: DT_FLOAT
      }
    }
    attr {
      key: "_output_shapes"
      value {
        list {
          shape {
            dim {
              size: -1
            }
            dim {
              size: 2
            }
          }
        }
      }
    }
    attr {
      key: "transpose_a"
      value {
        b: false
      }
    }
    attr {
      key: "transpose_b"
      value {
        b: false
      }
    }
  }
  node {
    name: "train_model/model/vf_fc0/Add"
    op: "Add"
    input: "train_model/model/vf_fc0/MatMul"
    input: "model/vf_fc0/b/read"
    attr {
      key: "T"
      value {
        type: DT_FLOAT
      }
    }
    attr {
      key: "_output_shapes"
      value {
        list {
          shape {
            dim {
              size: -1
            }
            dim {
              size: 2
            }
          }
        }
      }
    }
  }
  node {
    name: "train_model/model/Tanh_1"
    op: "Tanh"
    input: "train_model/model/vf_fc0/Add"
    attr {
      key: "T"
      value {
        type: DT_FLOAT
      }
    }
    attr {
      key: "_output_shapes"
      value {
        list {
          shape {
            dim {
              size: -1
            }
            dim {
              size: 2
            }
          }
        }
      }
    }
  }
  node {
    name: "train_model/model/pi_fc1/MatMul"
    op: "MatMul"
    input: "train_model/model/Tanh"
    input: "model/pi_fc1/w/read"
    attr {
      key: "T"
      value {
        type: DT_FLOAT
      }
    }
    attr {
      key: "_output_shapes"
      value {
        list {
          shape {
            dim {
              size: -1
            }
            dim {
              size: 2
            }
          }
        }
      }
    }
    attr {
      key: "transpose_a"
      value {
        b: false
      }
    }
    attr {
      key: "transpose_b"
      value {
        b: false
      }
    }
  }
  node {
    name: "train_model/model/pi_fc1/Add"
    op: "Add"
    input: "train_model/model/pi_fc1/MatMul"
    input: "model/pi_fc1/b/read"
    attr {
      key: "T"
      value {
        type: DT_FLOAT
      }
    }
    attr {
      key: "_output_shapes"
      value {
        list {
          shape {
            dim {
              size: -1
            }
            dim {
              size: 2
            }
          }
        }
      }
    }
  }
  node {
    name: "train_model/model/Tanh_2"
    op: "Tanh"
    input: "train_model/model/pi_fc1/Add"
    attr {
      key: "T"
      value {
        type: DT_FLOAT
      }
    }
    attr {
      key: "_output_shapes"
      value {
        list {
          shape {
            dim {
              size: -1
            }
            dim {
              size: 2
            }
          }
        }
      }
    }
  }
  node {
    name: "train_model/model/vf_fc1/MatMul"
    op: "MatMul"
    input: "train_model/model/Tanh_1"
    input: "model/vf_fc1/w/read"
    attr {
      key: "T"
      value {
        type: DT_FLOAT
      }
    }
    attr {
      key: "_output_shapes"
      value {
        list {
          shape {
            dim {
              size: -1
            }
            dim {
              size: 2
            }
          }
        }
      }
    }
    attr {
      key: "transpose_a"
      value {
        b: false
      }
    }
    attr {
      key: "transpose_b"
      value {
        b: false
      }
    }
  }
  node {
    name: "train_model/model/vf_fc1/Add"
    op: "Add"
    input: "train_model/model/vf_fc1/MatMul"
    input: "model/vf_fc1/b/read"
    attr {
      key: "T"
      value {
        type: DT_FLOAT
      }
    }
    attr {
      key: "_output_shapes"
      value {
        list {
          shape {
            dim {
              size: -1
            }
            dim {
              size: 2
            }
          }
        }
      }
    }
  }
  node {
    name: "train_model/model/Tanh_3"
    op: "Tanh"
    input: "train_model/model/vf_fc1/Add"
    attr {
      key: "T"
      value {
        type: DT_FLOAT
      }
    }
    attr {
      key: "_output_shapes"
      value {
        list {
          shape {
            dim {
              size: -1
            }
            dim {
              size: 2
            }
          }
        }
      }
    }
  }
  node {
    name: "train_model/model/vf/MatMul"
    op: "MatMul"
    input: "train_model/model/Tanh_3"
    input: "model/vf/w/read"
    attr {
      key: "T"
      value {
        type: DT_FLOAT
      }
    }
    attr {
      key: "_output_shapes"
      value {
        list {
          shape {
            dim {
              size: -1
            }
            dim {
              size: 1
            }
          }
        }
      }
    }
    attr {
      key: "transpose_a"
      value {
        b: false
      }
    }
    attr {
      key: "transpose_b"
      value {
        b: false
      }
    }
  }
  node {
    name: "train_model/model/vf/_value_fn"
    op: "Add"
    input: "train_model/model/vf/MatMul"
    input: "model/vf/b/read"
    attr {
      key: "T"
      value {
        type: DT_FLOAT
      }
    }
    attr {
      key: "_output_shapes"
      value {
        list {
          shape {
            dim {
              size: -1
            }
            dim {
              size: 1
            }
          }
        }
      }
    }
  }
  node {
    name: "train_model/model/pi/MatMul"
    op: "MatMul"
    input: "train_model/model/Tanh_2"
    input: "model/pi/w/read"
    attr {
      key: "T"
      value {
        type: DT_FLOAT
      }
    }
    attr {
      key: "_output_shapes"
      value {
        list {
          shape {
            dim {
              size: -1
            }
            dim {
              size: 18
            }
          }
        }
      }
    }
    attr {
      key: "transpose_a"
      value {
        b: false
      }
    }
    attr {
      key: "transpose_b"
      value {
        b: false
      }
    }
  }
  node {
    name: "train_model/model/pi/_policy"
    op: "Add"
    input: "train_model/model/pi/MatMul"
    input: "model/pi/b/read"
    attr {
      key: "T"
      value {
        type: DT_FLOAT
      }
    }
    attr {
      key: "_output_shapes"
      value {
        list {
          shape {
            dim {
              size: -1
            }
            dim {
              size: 18
            }
          }
        }
      }
    }
  }
  node {
    name: "train_model/model/mul/y"
    op: "Const"
    attr {
      key: "_output_shapes"
      value {
        list {
          shape {
          }
        }
      }
    }
    attr {
      key: "dtype"
      value {
        type: DT_FLOAT
      }
    }
    attr {
      key: "value"
      value {
        tensor {
          dtype: DT_FLOAT
          tensor_shape {
          }
          float_val: 0.0
        }
      }
    }
  }
  node {
    name: "train_model/model/mul"
    op: "Mul"
    input: "train_model/model/pi/_policy"
    input: "train_model/model/mul/y"
    attr {
      key: "T"
      value {
        type: DT_FLOAT
      }
    }
    attr {
      key: "_output_shapes"
      value {
        list {
          shape {
            dim {
              size: -1
            }
            dim {
              size: 18
            }
          }
        }
      }
    }
  }
  node {
    name: "train_model/model/add"
    op: "Add"
    input: "train_model/model/mul"
    input: "model/pi/logstd/read"
    attr {
      key: "T"
      value {
        type: DT_FLOAT
      }
    }
    attr {
      key: "_output_shapes"
      value {
        list {
          shape {
            dim {
              size: -1
            }
            dim {
              size: 18
            }
          }
        }
      }
    }
  }
  node {
    name: "train_model/model/pi/pdparam/axis"
    op: "Const"
    attr {
      key: "_output_shapes"
      value {
        list {
          shape {
          }
        }
      }
    }
    attr {
      key: "dtype"
      value {
        type: DT_INT32
      }
    }
    attr {
      key: "value"
      value {
        tensor {
          dtype: DT_INT32
          tensor_shape {
          }
          int_val: 1
        }
      }
    }
  }
  node {
    name: "train_model/model/pi/pdparam"
    op: "ConcatV2"
    input: "train_model/model/pi/_policy"
    input: "train_model/model/add"
    input: "train_model/model/pi/pdparam/axis"
    attr {
      key: "N"
      value {
        i: 2
      }
    }
    attr {
      key: "T"
      value {
        type: DT_FLOAT
      }
    }
    attr {
      key: "Tidx"
      value {
        type: DT_INT32
      }
    }
    attr {
      key: "_output_shapes"
      value {
        list {
          shape {
            dim {
              size: -1
            }
            dim {
              size: 36
            }
          }
        }
      }
    }
  }
  node {
    name: "train_model/model/q/MatMul"
    op: "MatMul"
    input: "train_model/model/Tanh_3"
    input: "model/q/w/read"
    attr {
      key: "T"
      value {
        type: DT_FLOAT
      }
    }
    attr {
      key: "_output_shapes"
      value {
        list {
          shape {
            dim {
              size: -1
            }
            dim {
              size: 18
            }
          }
        }
      }
    }
    attr {
      key: "transpose_a"
      value {
        b: false
      }
    }
    attr {
      key: "transpose_b"
      value {
        b: false
      }
    }
  }
  node {
    name: "train_model/model/q/q_value"
    op: "Add"
    input: "train_model/model/q/MatMul"
    input: "model/q/b/read"
    attr {
      key: "T"
      value {
        type: DT_FLOAT
      }
    }
    attr {
      key: "_output_shapes"
      value {
        list {
          shape {
            dim {
              size: -1
            }
            dim {
              size: 18
            }
          }
        }
      }
    }
  }
  node {
    name: "train_model/model/Const"
    op: "Const"
    attr {
      key: "_output_shapes"
      value {
        list {
          shape {
          }
        }
      }
    }
    attr {
      key: "dtype"
      value {
        type: DT_INT32
      }
    }
    attr {
      key: "value"
      value {
        tensor {
          dtype: DT_INT32
          tensor_shape {
          }
          int_val: 2
        }
      }
    }
  }
  node {
    name: "train_model/model/DiagGaussianProbabilityDistribution/split_dim"
    op: "Const"
    attr {
      key: "_output_shapes"
      value {
        list {
          shape {
          }
        }
      }
    }
    attr {
      key: "dtype"
      value {
        type: DT_INT32
      }
    }
    attr {
      key: "value"
      value {
        tensor {
          dtype: DT_INT32
          tensor_shape {
          }
          int_val: 1
        }
      }
    }
  }
  node {
    name: "train_model/model/DiagGaussianProbabilityDistribution"
    op: "Split"
    input: "train_model/model/DiagGaussianProbabilityDistribution/split_dim"
    input: "train_model/model/pi/pdparam"
    attr {
      key: "T"
      value {
        type: DT_FLOAT
      }
    }
    attr {
      key: "_output_shapes"
      value {
        list {
          shape {
            dim {
              size: -1
            }
            dim {
              size: 18
            }
          }
          shape {
            dim {
              size: -1
            }
            dim {
              size: 18
            }
          }
        }
      }
    }
    attr {
      key: "num_split"
      value {
        i: 2
      }
    }
  }
  node {
    name: "train_model/model/std"
    op: "Exp"
    input: "train_model/model/DiagGaussianProbabilityDistribution:1"
    attr {
      key: "T"
      value {
        type: DT_FLOAT
      }
    }
    attr {
      key: "_output_shapes"
      value {
        list {
          shape {
            dim {
              size: -1
            }
            dim {
              size: 18
            }
          }
        }
      }
    }
  }
  node {
    name: "train_model/output/Shape"
    op: "Shape"
    input: "train_model/model/DiagGaussianProbabilityDistribution"
    attr {
      key: "T"
      value {
        type: DT_FLOAT
      }
    }
    attr {
      key: "_output_shapes"
      value {
        list {
          shape {
            dim {
              size: 2
            }
          }
        }
      }
    }
    attr {
      key: "out_type"
      value {
        type: DT_INT32
      }
    }
  }
  node {
    name: "train_model/output/random_normal/mean"
    op: "Const"
    attr {
      key: "_output_shapes"
      value {
        list {
          shape {
          }
        }
      }
    }
    attr {
      key: "dtype"
      value {
        type: DT_FLOAT
      }
    }
    attr {
      key: "value"
      value {
        tensor {
          dtype: DT_FLOAT
          tensor_shape {
          }
          float_val: 0.0
        }
      }
    }
  }
  node {
    name: "train_model/output/random_normal/stddev"
    op: "Const"
    attr {
      key: "_output_shapes"
      value {
        list {
          shape {
          }
        }
      }
    }
    attr {
      key: "dtype"
      value {
        type: DT_FLOAT
      }
    }
    attr {
      key: "value"
      value {
        tensor {
          dtype: DT_FLOAT
          tensor_shape {
          }
          float_val: 1.0
        }
      }
    }
  }
  node {
    name: "train_model/output/random_normal/RandomStandardNormal"
    op: "RandomStandardNormal"
    input: "train_model/output/Shape"
    attr {
      key: "T"
      value {
        type: DT_INT32
      }
    }
    attr {
      key: "_output_shapes"
      value {
        list {
          shape {
            dim {
              size: -1
            }
            dim {
              size: 18
            }
          }
        }
      }
    }
    attr {
      key: "dtype"
      value {
        type: DT_FLOAT
      }
    }
    attr {
      key: "seed"
      value {
        i: 0
      }
    }
    attr {
      key: "seed2"
      value {
        i: 0
      }
    }
  }
  node {
    name: "train_model/output/random_normal/mul"
    op: "Mul"
    input: "train_model/output/random_normal/RandomStandardNormal"
    input: "train_model/output/random_normal/stddev"
    attr {
      key: "T"
      value {
        type: DT_FLOAT
      }
    }
    attr {
      key: "_output_shapes"
      value {
        list {
          shape {
            dim {
              size: -1
            }
            dim {
              size: 18
            }
          }
        }
      }
    }
  }
  node {
    name: "train_model/output/random_normal"
    op: "Add"
    input: "train_model/output/random_normal/mul"
    input: "train_model/output/random_normal/mean"
    attr {
      key: "T"
      value {
        type: DT_FLOAT
      }
    }
    attr {
      key: "_output_shapes"
      value {
        list {
          shape {
            dim {
              size: -1
            }
            dim {
              size: 18
            }
          }
        }
      }
    }
  }
  node {
    name: "train_model/output/mul"
    op: "Mul"
    input: "train_model/model/std"
    input: "train_model/output/random_normal"
    attr {
      key: "T"
      value {
        type: DT_FLOAT
      }
    }
    attr {
      key: "_output_shapes"
      value {
        list {
          shape {
            dim {
              size: -1
            }
            dim {
              size: 18
            }
          }
        }
      }
    }
  }
  node {
    name: "train_model/output/_action"
    op: "Add"
    input: "train_model/model/DiagGaussianProbabilityDistribution"
    input: "train_model/output/mul"
    attr {
      key: "T"
      value {
        type: DT_FLOAT
      }
    }
    attr {
      key: "_output_shapes"
      value {
        list {
          shape {
            dim {
              size: -1
            }
            dim {
              size: 18
            }
          }
        }
      }
    }
  }
  node {
    name: "train_model/output/_deterministic_action/y"
    op: "Const"
    attr {
      key: "_output_shapes"
      value {
        list {
          shape {
          }
        }
      }
    }
    attr {
      key: "dtype"
      value {
        type: DT_FLOAT
      }
    }
    attr {
      key: "value"
      value {
        tensor {
          dtype: DT_FLOAT
          tensor_shape {
          }
          float_val: 0.0
        }
      }
    }
  }
  node {
    name: "train_model/output/_deterministic_action"
    op: "Add"
    input: "train_model/model/DiagGaussianProbabilityDistribution"
    input: "train_model/output/_deterministic_action/y"
    attr {
      key: "T"
      value {
        type: DT_FLOAT
      }
    }
    attr {
      key: "_output_shapes"
      value {
        list {
          shape {
            dim {
              size: -1
            }
            dim {
              size: 18
            }
          }
        }
      }
    }
  }
  node {
    name: "train_model/output/sub"
    op: "Sub"
    input: "train_model/output/_action"
    input: "train_model/model/DiagGaussianProbabilityDistribution"
    attr {
      key: "T"
      value {
        type: DT_FLOAT
      }
    }
    attr {
      key: "_output_shapes"
      value {
        list {
          shape {
            dim {
              size: -1
            }
            dim {
              size: 18
            }
          }
        }
      }
    }
  }
  node {
    name: "train_model/output/truediv"
    op: "RealDiv"
    input: "train_model/output/sub"
    input: "train_model/model/std"
    attr {
      key: "T"
      value {
        type: DT_FLOAT
      }
    }
    attr {
      key: "_output_shapes"
      value {
        list {
          shape {
            dim {
              size: -1
            }
            dim {
              size: 18
            }
          }
        }
      }
    }
  }
  node {
    name: "train_model/output/Square"
    op: "Square"
    input: "train_model/output/truediv"
    attr {
      key: "T"
      value {
        type: DT_FLOAT
      }
    }
    attr {
      key: "_output_shapes"
      value {
        list {
          shape {
            dim {
              size: -1
            }
            dim {
              size: 18
            }
          }
        }
      }
    }
  }
  node {
    name: "train_model/output/Sum/reduction_indices"
    op: "Const"
    attr {
      key: "_output_shapes"
      value {
        list {
          shape {
          }
        }
      }
    }
    attr {
      key: "dtype"
      value {
        type: DT_INT32
      }
    }
    attr {
      key: "value"
      value {
        tensor {
          dtype: DT_INT32
          tensor_shape {
          }
          int_val: -1
        }
      }
    }
  }
  node {
    name: "train_model/output/Sum"
    op: "Sum"
    input: "train_model/output/Square"
    input: "train_model/output/Sum/reduction_indices"
    attr {
      key: "T"
      value {
        type: DT_FLOAT
      }
    }
    attr {
      key: "Tidx"
      value {
        type: DT_INT32
      }
    }
    attr {
      key: "_output_shapes"
      value {
        list {
          shape {
            dim {
              size: -1
            }
          }
        }
      }
    }
    attr {
      key: "keep_dims"
      value {
        b: false
      }
    }
  }
  node {
    name: "train_model/output/mul_1/x"
    op: "Const"
    attr {
      key: "_output_shapes"
      value {
        list {
          shape {
          }
        }
      }
    }
    attr {
      key: "dtype"
      value {
        type: DT_FLOAT
      }
    }
    attr {
      key: "value"
      value {
        tensor {
          dtype: DT_FLOAT
          tensor_shape {
          }
          float_val: 0.5
        }
      }
    }
  }
  node {
    name: "train_model/output/mul_1"
    op: "Mul"
    input: "train_model/output/mul_1/x"
    input: "train_model/output/Sum"
    attr {
      key: "T"
      value {
        type: DT_FLOAT
      }
    }
    attr {
      key: "_output_shapes"
      value {
        list {
          shape {
            dim {
              size: -1
            }
          }
        }
      }
    }
  }
  node {
    name: "train_model/output/Shape_1"
    op: "Shape"
    input: "train_model/output/_action"
    attr {
      key: "T"
      value {
        type: DT_FLOAT
      }
    }
    attr {
      key: "_output_shapes"
      value {
        list {
          shape {
            dim {
              size: 2
            }
          }
        }
      }
    }
    attr {
      key: "out_type"
      value {
        type: DT_INT32
      }
    }
  }
  node {
    name: "train_model/output/strided_slice/stack"
    op: "Const"
    attr {
      key: "_output_shapes"
      value {
        list {
          shape {
            dim {
              size: 1
            }
          }
        }
      }
    }
    attr {
      key: "dtype"
      value {
        type: DT_INT32
      }
    }
    attr {
      key: "value"
      value {
        tensor {
          dtype: DT_INT32
          tensor_shape {
            dim {
              size: 1
            }
          }
          int_val: -1
        }
      }
    }
  }
  node {
    name: "train_model/output/strided_slice/stack_1"
    op: "Const"
    attr {
      key: "_output_shapes"
      value {
        list {
          shape {
            dim {
              size: 1
            }
          }
        }
      }
    }
    attr {
      key: "dtype"
      value {
        type: DT_INT32
      }
    }
    attr {
      key: "value"
      value {
        tensor {
          dtype: DT_INT32
          tensor_shape {
            dim {
              size: 1
            }
          }
          int_val: 0
        }
      }
    }
  }
  node {
    name: "train_model/output/strided_slice/stack_2"
    op: "Const"
    attr {
      key: "_output_shapes"
      value {
        list {
          shape {
            dim {
              size: 1
            }
          }
        }
      }
    }
    attr {
      key: "dtype"
      value {
        type: DT_INT32
      }
    }
    attr {
      key: "value"
      value {
        tensor {
          dtype: DT_INT32
          tensor_shape {
            dim {
              size: 1
            }
          }
          int_val: 1
        }
      }
    }
  }
  node {
    name: "train_model/output/strided_slice"
    op: "StridedSlice"
    input: "train_model/output/Shape_1"
    input: "train_model/output/strided_slice/stack"
    input: "train_model/output/strided_slice/stack_1"
    input: "train_model/output/strided_slice/stack_2"
    attr {
      key: "Index"
      value {
        type: DT_INT32
      }
    }
    attr {
      key: "T"
      value {
        type: DT_INT32
      }
    }
    attr {
      key: "_output_shapes"
      value {
        list {
          shape {
          }
        }
      }
    }
    attr {
      key: "begin_mask"
      value {
        i: 0
      }
    }
    attr {
      key: "ellipsis_mask"
      value {
        i: 0
      }
    }
    attr {
      key: "end_mask"
      value {
        i: 0
      }
    }
    attr {
      key: "new_axis_mask"
      value {
        i: 0
      }
    }
    attr {
      key: "shrink_axis_mask"
      value {
        i: 1
      }
    }
  }
  node {
    name: "train_model/output/Cast"
    op: "Cast"
    input: "train_model/output/strided_slice"
    attr {
      key: "DstT"
      value {
        type: DT_FLOAT
      }
    }
    attr {
      key: "SrcT"
      value {
        type: DT_INT32
      }
    }
    attr {
      key: "Truncate"
      value {
        b: false
      }
    }
    attr {
      key: "_output_shapes"
      value {
        list {
          shape {
          }
        }
      }
    }
  }
  node {
    name: "train_model/output/mul_2/x"
    op: "Const"
    attr {
      key: "_output_shapes"
      value {
        list {
          shape {
          }
        }
      }
    }
    attr {
      key: "dtype"
      value {
        type: DT_FLOAT
      }
    }
    attr {
      key: "value"
      value {
        tensor {
          dtype: DT_FLOAT
          tensor_shape {
          }
          float_val: 0.9189385175704956
        }
      }
    }
  }
  node {
    name: "train_model/output/mul_2"
    op: "Mul"
    input: "train_model/output/mul_2/x"
    input: "train_model/output/Cast"
    attr {
      key: "T"
      value {
        type: DT_FLOAT
      }
    }
    attr {
      key: "_output_shapes"
      value {
        list {
          shape {
          }
        }
      }
    }
  }
  node {
    name: "train_model/output/Add"
    op: "Add"
    input: "train_model/output/mul_1"
    input: "train_model/output/mul_2"
    attr {
      key: "T"
      value {
        type: DT_FLOAT
      }
    }
    attr {
      key: "_output_shapes"
      value {
        list {
          shape {
            dim {
              size: -1
            }
          }
        }
      }
    }
  }
  node {
    name: "train_model/output/Sum_1/reduction_indices"
    op: "Const"
    attr {
      key: "_output_shapes"
      value {
        list {
          shape {
          }
        }
      }
    }
    attr {
      key: "dtype"
      value {
        type: DT_INT32
      }
    }
    attr {
      key: "value"
      value {
        tensor {
          dtype: DT_INT32
          tensor_shape {
          }
          int_val: -1
        }
      }
    }
  }
  node {
    name: "train_model/output/Sum_1"
    op: "Sum"
    input: "train_model/model/DiagGaussianProbabilityDistribution:1"
    input: "train_model/output/Sum_1/reduction_indices"
    attr {
      key: "T"
      value {
        type: DT_FLOAT
      }
    }
    attr {
      key: "Tidx"
      value {
        type: DT_INT32
      }
    }
    attr {
      key: "_output_shapes"
      value {
        list {
          shape {
            dim {
              size: -1
            }
          }
        }
      }
    }
    attr {
      key: "keep_dims"
      value {
        b: false
      }
    }
  }
  node {
    name: "train_model/output/_neglogp"
    op: "Add"
    input: "train_model/output/Add"
    input: "train_model/output/Sum_1"
    attr {
      key: "T"
      value {
        type: DT_FLOAT
      }
    }
    attr {
      key: "_output_shapes"
      value {
        list {
          shape {
            dim {
              size: -1
            }
          }
        }
      }
    }
  }
  node {
    name: "train_model/output/strided_slice_1/stack"
    op: "Const"
    attr {
      key: "_output_shapes"
      value {
        list {
          shape {
            dim {
              size: 2
            }
          }
        }
      }
    }
    attr {
      key: "dtype"
      value {
        type: DT_INT32
      }
    }
    attr {
      key: "value"
      value {
        tensor {
          dtype: DT_INT32
          tensor_shape {
            dim {
              size: 2
            }
          }
          tensor_content: "\000\000\000\000\000\000\000\000"
        }
      }
    }
  }
  node {
    name: "train_model/output/strided_slice_1/stack_1"
    op: "Const"
    attr {
      key: "_output_shapes"
      value {
        list {
          shape {
            dim {
              size: 2
            }
          }
        }
      }
    }
    attr {
      key: "dtype"
      value {
        type: DT_INT32
      }
    }
    attr {
      key: "value"
      value {
        tensor {
          dtype: DT_INT32
          tensor_shape {
            dim {
              size: 2
            }
          }
          tensor_content: "\000\000\000\000\001\000\000\000"
        }
      }
    }
  }
  node {
    name: "train_model/output/strided_slice_1/stack_2"
    op: "Const"
    attr {
      key: "_output_shapes"
      value {
        list {
          shape {
            dim {
              size: 2
            }
          }
        }
      }
    }
    attr {
      key: "dtype"
      value {
        type: DT_INT32
      }
    }
    attr {
      key: "value"
      value {
        tensor {
          dtype: DT_INT32
          tensor_shape {
            dim {
              size: 2
            }
          }
          tensor_content: "\001\000\000\000\001\000\000\000"
        }
      }
    }
  }
  node {
    name: "train_model/output/strided_slice_1"
    op: "StridedSlice"
    input: "train_model/model/vf/_value_fn"
    input: "train_model/output/strided_slice_1/stack"
    input: "train_model/output/strided_slice_1/stack_1"
    input: "train_model/output/strided_slice_1/stack_2"
    attr {
      key: "Index"
      value {
        type: DT_INT32
      }
    }
    attr {
      key: "T"
      value {
        type: DT_FLOAT
      }
    }
    attr {
      key: "_output_shapes"
      value {
        list {
          shape {
            dim {
              size: -1
            }
          }
        }
      }
    }
    attr {
      key: "begin_mask"
      value {
        i: 1
      }
    }
    attr {
      key: "ellipsis_mask"
      value {
        i: 0
      }
    }
    attr {
      key: "end_mask"
      value {
        i: 1
      }
    }
    attr {
      key: "new_axis_mask"
      value {
        i: 0
      }
    }
    attr {
      key: "shrink_axis_mask"
      value {
        i: 2
      }
    }
  }
  node {
    name: "train_model/output/_value_flat"
    op: "Identity"
    input: "train_model/output/strided_slice_1"
    attr {
      key: "T"
      value {
        type: DT_FLOAT
      }
    }
    attr {
      key: "_output_shapes"
      value {
        list {
          shape {
            dim {
              size: -1
            }
          }
        }
      }
    }
  }
  node {
    name: "loss/action_ph"
    op: "Placeholder"
    attr {
      key: "_output_shapes"
      value {
        list {
          shape {
            dim {
              size: -1
            }
            dim {
              size: 18
            }
          }
        }
      }
    }
    attr {
      key: "dtype"
      value {
        type: DT_FLOAT
      }
    }
    attr {
      key: "shape"
      value {
        shape {
          dim {
            size: -1
          }
          dim {
            size: 18
          }
        }
      }
    }
  }
  node {
    name: "loss/advs_ph"
    op: "Placeholder"
    attr {
      key: "_output_shapes"
      value {
        list {
          shape {
            dim {
              size: -1
            }
          }
        }
      }
    }
    attr {
      key: "dtype"
      value {
        type: DT_FLOAT
      }
    }
    attr {
      key: "shape"
      value {
        shape {
          dim {
            size: -1
          }
        }
      }
    }
  }
  node {
    name: "loss/rewards_ph"
    op: "Placeholder"
    attr {
      key: "_output_shapes"
      value {
        list {
          shape {
            dim {
              size: -1
            }
          }
        }
      }
    }
    attr {
      key: "dtype"
      value {
        type: DT_FLOAT
      }
    }
    attr {
      key: "shape"
      value {
        shape {
          dim {
            size: -1
          }
        }
      }
    }
  }
  node {
    name: "loss/old_neglog_pac_ph"
    op: "Placeholder"
    attr {
      key: "_output_shapes"
      value {
        list {
          shape {
            dim {
              size: -1
            }
…
        b: false
      }
    }
    attr {
      key: "use_nesterov"
      value {
        b: false
      }
    }
  }
  node {
    name: "ppo2/_train/update_model/pi/b/ApplyAdam"
    op: "ApplyAdam"
    input: "model/pi/b"
    input: "model/pi/b/Adam"
    input: "model/pi/b/Adam_1"
    input: "beta1_power/read"
    input: "beta2_power/read"
    input: "loss/learning_rate_ph"
    input: "ppo2/_train/beta1"
    input: "ppo2/_train/beta2"
    input: "ppo2/_train/epsilon"
    input: "loss/clip_by_global_norm/loss/clip_by_global_norm/_11"
    attr {
      key: "T"
      value {
        type: DT_FLOAT
      }
    }
    attr {
      key: "_class"
      value {
        list {
          s: "loc:@model/pi/b"
        }
      }
    }
    attr {
      key: "_output_shapes"
      value {
        list {
          shape {
            dim {
              size: 18
            }
          }
        }
      }
    }
    attr {
      key: "use_locking"
      value {
        b: false
      }
    }
    attr {
      key: "use_nesterov"
      value {
        b: false
      }
    }
  }
  node {
    name: "ppo2/_train/update_model/pi/logstd/ApplyAdam"
    op: "ApplyAdam"
    input: "model/pi/logstd"
    input: "model/pi/logstd/Adam"
    input: "model/pi/logstd/Adam_1"
    input: "beta1_power/read"
    input: "beta2_power/read"
    input: "loss/learning_rate_ph"
    input: "ppo2/_train/beta1"
    input: "ppo2/_train/beta2"
    input: "ppo2/_train/epsilon"
    input: "loss/clip_by_global_norm/loss/clip_by_global_norm/_12"
    attr {
      key: "T"
      value {
        type: DT_FLOAT
      }
    }
    attr {
      key: "_class"
      value {
        list {
          s: "loc:@model/pi/logstd"
        }
      }
    }
    attr {
      key: "_output_shapes"
      value {
        list {
          shape {
            dim {
              size: 1
            }
            dim {
              size: 18
            }
          }
        }
      }
    }
    attr {
      key: "use_locking"
      value {
        b: false
      }
    }
    attr {
      key: "use_nesterov"
      value {
        b: false
      }
    }
  }
  node {
    name: "ppo2/_train/mul"
    op: "Mul"
    input: "beta1_power/read"
    input: "ppo2/_train/beta1"
    input: "^ppo2/_train/update_model/pi/b/ApplyAdam"
    input: "^ppo2/_train/update_model/pi/logstd/ApplyAdam"
    input: "^ppo2/_train/update_model/pi/w/ApplyAdam"
    input: "^ppo2/_train/update_model/pi_fc0/b/ApplyAdam"
    input: "^ppo2/_train/update_model/pi_fc0/w/ApplyAdam"
    input: "^ppo2/_train/update_model/pi_fc1/b/ApplyAdam"
    input: "^ppo2/_train/update_model/pi_fc1/w/ApplyAdam"
    input: "^ppo2/_train/update_model/vf/b/ApplyAdam"
    input: "^ppo2/_train/update_model/vf/w/ApplyAdam"
    input: "^ppo2/_train/update_model/vf_fc0/b/ApplyAdam"
    input: "^ppo2/_train/update_model/vf_fc0/w/ApplyAdam"
    input: "^ppo2/_train/update_model/vf_fc1/b/ApplyAdam"
    input: "^ppo2/_train/update_model/vf_fc1/w/ApplyAdam"
    attr {
      key: "T"
      value {
        type: DT_FLOAT
      }
    }
    attr {
      key: "_class"
      value {
        list {
          s: "loc:@model/pi/b"
        }
      }
    }
    attr {
      key: "_output_shapes"
      value {
        list {
          shape {
          }
        }
      }
    }
  }
  node {
    name: "ppo2/_train/Assign"
    op: "Assign"
    input: "beta1_power"
    input: "ppo2/_train/mul"
    attr {
      key: "T"
      value {
        type: DT_FLOAT
      }
    }
    attr {
      key: "_class"
      value {
        list {
          s: "loc:@model/pi/b"
        }
      }
    }
    attr {
      key: "_output_shapes"
      value {
        list {
          shape {
          }
        }
      }
    }
    attr {
      key: "use_locking"
      value {
        b: false
      }
    }
    attr {
      key: "validate_shape"
      value {
        b: true
      }
    }
  }
  node {
    name: "ppo2/_train/mul_1"
    op: "Mul"
    input: "beta2_power/read"
    input: "ppo2/_train/beta2"
    input: "^ppo2/_train/update_model/pi/b/ApplyAdam"
    input: "^ppo2/_train/update_model/pi/logstd/ApplyAdam"
    input: "^ppo2/_train/update_model/pi/w/ApplyAdam"
    input: "^ppo2/_train/update_model/pi_fc0/b/ApplyAdam"
    input: "^ppo2/_train/update_model/pi_fc0/w/ApplyAdam"
    input: "^ppo2/_train/update_model/pi_fc1/b/ApplyAdam"
    input: "^ppo2/_train/update_model/pi_fc1/w/ApplyAdam"
    input: "^ppo2/_train/update_model/vf/b/ApplyAdam"
    input: "^ppo2/_train/update_model/vf/w/ApplyAdam"
    input: "^ppo2/_train/update_model/vf_fc0/b/ApplyAdam"
    input: "^ppo2/_train/update_model/vf_fc0/w/ApplyAdam"
    input: "^ppo2/_train/update_model/vf_fc1/b/ApplyAdam"
    input: "^ppo2/_train/update_model/vf_fc1/w/ApplyAdam"
    attr {
      key: "T"
      value {
        type: DT_FLOAT
      }
    }
    attr {
      key: "_class"
      value {
        list {
          s: "loc:@model/pi/b"
        }
      }
    }
    attr {
      key: "_output_shapes"
      value {
        list {
          shape {
          }
        }
      }
    }
  }
  node {
    name: "ppo2/_train/Assign_1"
    op: "Assign"
    input: "beta2_power"
    input: "ppo2/_train/mul_1"
    attr {
      key: "T"
      value {
        type: DT_FLOAT
      }
    }
    attr {
      key: "_class"
      value {
        list {
          s: "loc:@model/pi/b"
        }
      }
    }
    attr {
      key: "_output_shapes"
      value {
        list {
          shape {
          }
        }
      }
    }
    attr {
      key: "use_locking"
      value {
        b: false
      }
    }
    attr {
      key: "validate_shape"
      value {
        b: true
      }
    }
  }
  node {
    name: "ppo2/_train"
    op: "NoOp"
    input: "^ppo2/_train/Assign"
    input: "^ppo2/_train/Assign_1"
    input: "^ppo2/_train/update_model/pi/b/ApplyAdam"
    input: "^ppo2/_train/update_model/pi/logstd/ApplyAdam"
    input: "^ppo2/_train/update_model/pi/w/ApplyAdam"
    input: "^ppo2/_train/update_model/pi_fc0/b/ApplyAdam"
    input: "^ppo2/_train/update_model/pi_fc0/w/ApplyAdam"
    input: "^ppo2/_train/update_model/pi_fc1/b/ApplyAdam"
    input: "^ppo2/_train/update_model/pi_fc1/w/ApplyAdam"
    input: "^ppo2/_train/update_model/vf/b/ApplyAdam"
    input: "^ppo2/_train/update_model/vf/w/ApplyAdam"
    input: "^ppo2/_train/update_model/vf_fc0/b/ApplyAdam"
    input: "^ppo2/_train/update_model/vf_fc0/w/ApplyAdam"
    input: "^ppo2/_train/update_model/vf_fc1/b/ApplyAdam"
    input: "^ppo2/_train/update_model/vf_fc1/w/ApplyAdam"
  }
  node {
    name: "input_info/Const"
    op: "Const"
    attr {
      key: "_output_shapes"
      value {
        list {
          shape {
            dim {
              size: 1
            }
          }
        }
      }
    }
    attr {
      key: "dtype"
      value {
        type: DT_INT32
      }
    }
    attr {
      key: "value"
      value {
        tensor {
          dtype: DT_INT32
          tensor_shape {
            dim {
              size: 1
            }
          }
          int_val: 0
        }
      }
    }
  }
  node {
    name: "input_info/Mean"
    op: "Mean"
    input: "loss/rewards_ph"
    input: "input_info/Const"
    attr {
      key: "T"
      value {
        type: DT_FLOAT
      }
    }
    attr {
      key: "Tidx"
      value {
        type: DT_INT32
      }
    }
    attr {
      key: "_output_shapes"
      value {
        list {
          shape {
          }
        }
      }
    }
    attr {
      key: "keep_dims"
      value {
        b: false
      }
    }
  }
  node {
    name: "input_info/discounted_rewards/tags"
    op: "Const"
    attr {
      key: "_output_shapes"
      value {
        list {
          shape {
          }
        }
      }
    }
    attr {
      key: "dtype"
      value {
        type: DT_STRING
      }
    }
    attr {
      key: "value"
      value {
        tensor {
          dtype: DT_STRING
          tensor_shape {
          }
          string_val: "input_info/discounted_rewards"
        }
      }
    }
  }
  node {
    name: "input_info/discounted_rewards"
    op: "ScalarSummary"
    input: "input_info/discounted_rewards/tags"
    input: "input_info/Mean"
    attr {
      key: "T"
      value {
        type: DT_FLOAT
      }
    }
    attr {
      key: "_output_shapes"
      value {
        list {
          shape {
          }
        }
      }
    }
  }
  node {
    name: "input_info/Const_1"
    op: "Const"
    attr {
      key: "_output_shapes"
      value {
        list {
          shape {
            dim {
            }
          }
        }
      }
    }
    attr {
      key: "dtype"
      value {
        type: DT_INT32
      }
    }
    attr {
      key: "value"
      value {
        tensor {
          dtype: DT_INT32
          tensor_shape {
            dim {
            }
          }
        }
      }
    }
  }
  node {
    name: "input_info/Mean_1"
    op: "Mean"
    input: "loss/learning_rate_ph"
    input: "input_info/Const_1"
    attr {
      key: "T"
      value {
        type: DT_FLOAT
      }
    }
    attr {
      key: "Tidx"
      value {
        type: DT_INT32
      }
    }
    attr {
      key: "_output_shapes"
      value {
        list {
          shape {
          }
        }
      }
    }
    attr {
      key: "keep_dims"
      value {
        b: false
      }
    }
  }
  node {
    name: "input_info/learning_rate/tags"
    op: "Const"
    attr {
      key: "_output_shapes"
      value {
        list {
          shape {
          }
        }
      }
    }
    attr {
      key: "dtype"
      value {
        type: DT_STRING
      }
    }
    attr {
      key: "value"
      value {
        tensor {
          dtype: DT_STRING
          tensor_shape {
          }
          string_val: "input_info/learning_rate"
        }
      }
    }
  }
  node {
    name: "input_info/learning_rate"
    op: "ScalarSummary"
    input: "input_info/learning_rate/tags"
    input: "input_info/Mean_1"
    attr {
      key: "T"
      value {
        type: DT_FLOAT
      }
    }
    attr {
      key: "_output_shapes"
      value {
        list {
          shape {
          }
        }
      }
    }
  }
  node {
    name: "input_info/Const_2"
    op: "Const"
    attr {
      key: "_output_shapes"
      value {
        list {
          shape {
            dim {
              size: 1
            }
          }
        }
      }
    }
    attr {
      key: "dtype"
      value {
        type: DT_INT32
      }
    }
    attr {
      key: "value"
      value {
        tensor {
          dtype: DT_INT32
          tensor_shape {
            dim {
              size: 1
            }
          }
          int_val: 0
        }
      }
    }
  }
  node {
    name: "input_info/Mean_2"
    op: "Mean"
    input: "loss/advs_ph"
    input: "input_info/Const_2"
    attr {
      key: "T"
      value {
        type: DT_FLOAT
      }
    }
    attr {
      key: "Tidx"
      value {
        type: DT_INT32
      }
    }
    attr {
      key: "_output_shapes"
      value {
        list {
          shape {
          }
        }
      }
    }
    attr {
      key: "keep_dims"
      value {
        b: false
      }
    }
  }
  node {
    name: "input_info/advantage/tags"
    op: "Const"
    attr {
      key: "_output_shapes"
      value {
        list {
          shape {
          }
        }
      }
    }
    attr {
      key: "dtype"
      value {
        type: DT_STRING
      }
    }
    attr {
      key: "value"
      value {
        tensor {
          dtype: DT_STRING
          tensor_shape {
          }
          string_val: "input_info/advantage"
        }
      }
    }
  }
  node {
    name: "input_info/advantage"
    op: "ScalarSummary"
    input: "input_info/advantage/tags"
    input: "input_info/Mean_2"
    attr {
      key: "T"
      value {
        type: DT_FLOAT
      }
    }
    attr {
      key: "_output_shapes"
      value {
        list {
          shape {
          }
        }
      }
    }
  }
  node {
    name: "input_info/Const_3"
    op: "Const"
    attr {
      key: "_output_shapes"
      value {
        list {
          shape {
            dim {
            }
          }
        }
      }
    }
    attr {
      key: "dtype"
      value {
        type: DT_INT32
      }
    }
    attr {
      key: "value"
      value {
        tensor {
          dtype: DT_INT32
          tensor_shape {
            dim {
            }
          }
        }
      }
    }
  }
  node {
    name: "input_info/Mean_3"
    op: "Mean"
    input: "loss/clip_range_ph"
    input: "input_info/Const_3"
    attr {
      key: "T"
      value {
        type: DT_FLOAT
      }
    }
    attr {
      key: "Tidx"
      value {
        type: DT_INT32
      }
    }
    attr {
      key: "_output_shapes"
      value {
        list {
          shape {
          }
        }
      }
    }
    attr {
      key: "keep_dims"
      value {
        b: false
      }
    }
  }
  node {
    name: "input_info/clip_range/tags"
    op: "Const"
    attr {
      key: "_output_shapes"
      value {
        list {
          shape {
          }
        }
      }
    }
    attr {
      key: "dtype"
      value {
        type: DT_STRING
      }
    }
    attr {
      key: "value"
      value {
        tensor {
          dtype: DT_STRING
          tensor_shape {
          }
          string_val: "input_info/clip_range"
        }
      }
    }
  }
  node {
    name: "input_info/clip_range"
    op: "ScalarSummary"
    input: "input_info/clip_range/tags"
    input: "input_info/Mean_3"
    attr {
      key: "T"
      value {
        type: DT_FLOAT
      }
    }
    attr {
      key: "_output_shapes"
      value {
        list {
          shape {
          }
        }
      }
    }
  }
  node {
    name: "input_info/Const_4"
    op: "Const"
    attr {
      key: "_output_shapes"
      value {
        list {
          shape {
            dim {
            }
          }
        }
      }
    }
    attr {
      key: "dtype"
      value {
        type: DT_INT32
      }
    }
    attr {
      key: "value"
      value {
        tensor {
          dtype: DT_INT32
          tensor_shape {
            dim {
            }
          }
        }
      }
    }
  }
  node {
    name: "input_info/Mean_4"
    op: "Mean"
    input: "loss/clip_range_ph"
    input: "input_info/Const_4"
    attr {
      key: "T"
      value {
        type: DT_FLOAT
      }
    }
    attr {
      key: "Tidx"
      value {
        type: DT_INT32
      }
    }
    attr {
      key: "_output_shapes"
      value {
        list {
          shape {
          }
        }
      }
    }
    attr {
      key: "keep_dims"
      value {
        b: false
      }
    }
  }
  node {
    name: "input_info/clip_range_vf/tags"
    op: "Const"
    attr {
      key: "_output_shapes"
      value {
        list {
          shape {
          }
        }
      }
    }
    attr {
      key: "dtype"
      value {
        type: DT_STRING
      }
    }
    attr {
      key: "value"
      value {
        tensor {
          dtype: DT_STRING
          tensor_shape {
          }
          string_val: "input_info/clip_range_vf"
        }
      }
    }
  }
  node {
    name: "input_info/clip_range_vf"
    op: "ScalarSummary"
    input: "input_info/clip_range_vf/tags"
    input: "input_info/Mean_4"
    attr {
      key: "T"
      value {
        type: DT_FLOAT
      }
    }
    attr {
      key: "_output_shapes"
      value {
        list {
          shape {
          }
        }
      }
    }
  }
  node {
    name: "input_info/Const_5"
    op: "Const"
    attr {
      key: "_output_shapes"
      value {
        list {
          shape {
            dim {
              size: 1
            }
          }
        }
      }
    }
    attr {
      key: "dtype"
      value {
        type: DT_INT32
      }
    }
    attr {
      key: "value"
      value {
        tensor {
          dtype: DT_INT32
          tensor_shape {
            dim {
              size: 1
            }
          }
          int_val: 0
        }
      }
    }
  }
  node {
    name: "input_info/Mean_5"
    op: "Mean"
    input: "loss/old_neglog_pac_ph"
    input: "input_info/Const_5"
    attr {
      key: "T"
      value {
        type: DT_FLOAT
      }
    }
    attr {
      key: "Tidx"
      value {
        type: DT_INT32
      }
    }
    attr {
      key: "_output_shapes"
      value {
        list {
          shape {
          }
        }
      }
    }
    attr {
      key: "keep_dims"
      value {
        b: false
      }
    }
  }
  node {
    name: "input_info/old_neglog_action_probabilty/tags"
    op: "Const"
    attr {
      key: "_output_shapes"
      value {
        list {
          shape {
          }
        }
      }
    }
    attr {
      key: "dtype"
      value {
        type: DT_STRING
      }
    }
    attr {
      key: "value"
      value {
        tensor {
          dtype: DT_STRING
          tensor_shape {
          }
          string_val: "input_info/old_neglog_action_probabilty"
        }
      }
    }
  }
  node {
    name: "input_info/old_neglog_action_probabilty"
    op: "ScalarSummary"
    input: "input_info/old_neglog_action_probabilty/tags"
    input: "input_info/Mean_5"
    attr {
      key: "T"
      value {
        type: DT_FLOAT
      }
    }
    attr {
      key: "_output_shapes"
      value {
        list {
          shape {
          }
        }
      }
    }
  }
  node {
    name: "input_info/Const_6"
    op: "Const"
    attr {
      key: "_output_shapes"
      value {
        list {
          shape {
            dim {
              size: 1
            }
          }
        }
      }
    }
    attr {
      key: "dtype"
      value {
        type: DT_INT32
      }
    }
    attr {
      key: "value"
      value {
        tensor {
          dtype: DT_INT32
          tensor_shape {
            dim {
              size: 1
            }
          }
          int_val: 0
        }
      }
    }
  }
  node {
    name: "input_info/Mean_6"
    op: "Mean"
    input: "loss/old_vpred_ph"
    input: "input_info/Const_6"
    attr {
      key: "T"
      value {
        type: DT_FLOAT
      }
    }
    attr {
      key: "Tidx"
      value {
        type: DT_INT32
      }
    }
    attr {
      key: "_output_shapes"
      value {
        list {
          shape {
          }
        }
      }
    }
    attr {
      key: "keep_dims"
      value {
        b: false
      }
    }
  }
  node {
    name: "input_info/old_value_pred/tags"
    op: "Const"
    attr {
      key: "_output_shapes"
      value {
        list {
          shape {
          }
        }
      }
    }
    attr {
      key: "dtype"
      value {
        type: DT_STRING
      }
    }
    attr {
      key: "value"
      value {
        tensor {
          dtype: DT_STRING
          tensor_shape {
          }
          string_val: "input_info/old_value_pred"
        }
      }
    }
  }
  node {
    name: "input_info/old_value_pred"
    op: "ScalarSummary"
    input: "input_info/old_value_pred/tags"
    input: "input_info/Mean_6"
    attr {
      key: "T"
      value {
        type: DT_FLOAT
      }
    }
    attr {
      key: "_output_shapes"
      value {
        list {
          shape {
          }
        }
      }
    }
  }
  node {
    name: "init"
    op: "NoOp"
    input: "^beta1_power/Assign"
    input: "^beta2_power/Assign"
    input: "^model/pi/b/Adam/Assign"
    input: "^model/pi/b/Adam_1/Assign"
    input: "^model/pi/b/Assign"
    input: "^model/pi/logstd/Adam/Assign"
    input: "^model/pi/logstd/Adam_1/Assign"
    input: "^model/pi/logstd/Assign"
    input: "^model/pi/w/Adam/Assign"
    input: "^model/pi/w/Adam_1/Assign"
    input: "^model/pi/w/Assign"
    input: "^model/pi_fc0/b/Adam/Assign"
    input: "^model/pi_fc0/b/Adam_1/Assign"
    input: "^model/pi_fc0/b/Assign"
    input: "^model/pi_fc0/w/Adam/Assign"
    input: "^model/pi_fc0/w/Adam_1/Assign"
    input: "^model/pi_fc0/w/Assign"
    input: "^model/pi_fc1/b/Adam/Assign"
    input: "^model/pi_fc1/b/Adam_1/Assign"
    input: "^model/pi_fc1/b/Assign"
    input: "^model/pi_fc1/w/Adam/Assign"
    input: "^model/pi_fc1/w/Adam_1/Assign"
    input: "^model/pi_fc1/w/Assign"
    input: "^model/q/b/Assign"
    input: "^model/q/w/Assign"
    input: "^model/vf/b/Adam/Assign"
    input: "^model/vf/b/Adam_1/Assign"
    input: "^model/vf/b/Assign"
    input: "^model/vf/w/Adam/Assign"
    input: "^model/vf/w/Adam_1/Assign"
    input: "^model/vf/w/Assign"
    input: "^model/vf_fc0/b/Adam/Assign"
    input: "^model/vf_fc0/b/Adam_1/Assign"
    input: "^model/vf_fc0/b/Assign"
    input: "^model/vf_fc0/w/Adam/Assign"
    input: "^model/vf_fc0/w/Adam_1/Assign"
    input: "^model/vf_fc0/w/Assign"
    input: "^model/vf_fc1/b/Adam/Assign"
    input: "^model/vf_fc1/b/Adam_1/Assign"
    input: "^model/vf_fc1/b/Assign"
    input: "^model/vf_fc1/w/Adam/Assign"
    input: "^model/vf_fc1/w/Adam_1/Assign"
    input: "^model/vf_fc1/w/Assign"
  }
  node {
    name: "ppo2/summary/ppo2/summary"
    op: "MergeSummary"
    input: "loss/entropy_loss"
    input: "loss/policy_gradient_loss"
    input: "loss/value_function_loss"
    input: "loss/approximate_kullback-leibler"
    input: "loss/clip_factor"
    input: "loss/loss"
    input: "input_info/discounted_rewards"
    input: "input_info/learning_rate"
    input: "input_info/advantage"
    input: "input_info/clip_range"
    input: "input_info/clip_range_vf"
    input: "input_info/old_neglog_action_probabilty"
    input: "input_info/old_value_pred"
    attr {
      key: "N"
      value {
        i: 13
      }
    }
    attr {
      key: "_output_shapes"
      value {
        list {
          shape {
          }
        }
      }
    }
  }
  node {
    name: "save/filename/input"
    op: "Const"
    attr {
      key: "_output_shapes"
      value {
        list {
          shape {
          }
        }
      }
    }
    attr {
      key: "dtype"
      value {
        type: DT_STRING
      }
    }
    attr {
      key: "value"
      value {
        tensor {
          dtype: DT_STRING
          tensor_shape {
          }
          string_val: "model"
        }
      }
    }
  }
  node {
    name: "save/filename"
    op: "PlaceholderWithDefault"
    input: "save/filename/input"
    attr {
      key: "_output_shapes"
      value {
        list {
          shape {
          }
        }
      }
    }
    attr {
      key: "dtype"
      value {
        type: DT_STRING
      }
    }
    attr {
      key: "shape"
      value {
        shape {
        }
      }
    }
  }
  node {
    name: "save/Const"
    op: "PlaceholderWithDefault"
    input: "save/filename"
    attr {
      key: "_output_shapes"
      value {
        list {
          shape {
          }
        }
      }
    }
    attr {
      key: "dtype"
      value {
        type: DT_STRING
      }
    }
    attr {
      key: "shape"
      value {
        shape {
        }
      }
    }
  }
  node {
    name: "save/SaveV2/tensor_names"
    op: "Const"
    attr {
      key: "_output_shapes"
      value {
        list {
          shape {
            dim {
              size: 15
            }
          }
        }
      }
    }
    attr {
      key: "dtype"
      value {
        type: DT_STRING
      }
    }
    attr {
      key: "value"
      value {
        tensor {
          dtype: DT_STRING
          tensor_shape {
            dim {
              size: 15
            }
          }
          string_val: "model/pi/b"
          string_val: "model/pi/logstd"
          string_val: "model/pi/w"
          string_val: "model/pi_fc0/b"
          string_val: "model/pi_fc0/w"
          string_val: "model/pi_fc1/b"
          string_val: "model/pi_fc1/w"
          string_val: "model/q/b"
          string_val: "model/q/w"
          string_val: "model/vf/b"
          string_val: "model/vf/w"
          string_val: "model/vf_fc0/b"
          string_val: "model/vf_fc0/w"
          string_val: "model/vf_fc1/b"
          string_val: "model/vf_fc1/w"
        }
      }
    }
  }
  node {
    name: "save/SaveV2/shape_and_slices"
    op: "Const"
    attr {
      key: "_output_shapes"
      value {
        list {
          shape {
            dim {
              size: 15
            }
          }
        }
      }
    }
    attr {
      key: "dtype"
      value {
        type: DT_STRING
      }
    }
    attr {
      key: "value"
      value {
        tensor {
          dtype: DT_STRING
          tensor_shape {
            dim {
              size: 15
            }
          }
          string_val: ""
          string_val: ""
          string_val: ""
          string_val: ""
          string_val: ""
          string_val: ""
          string_val: ""
          string_val: ""
          string_val: ""
          string_val: ""
          string_val: ""
          string_val: ""
          string_val: ""
          string_val: ""
          string_val: ""
        }
      }
    }
  }
  node {
    name: "save/SaveV2"
    op: "SaveV2"
    input: "save/Const"
    input: "save/SaveV2/tensor_names"
    input: "save/SaveV2/shape_and_slices"
    input: "model/pi/b"
    input: "model/pi/logstd"
    input: "model/pi/w"
    input: "model/pi_fc0/b"
    input: "model/pi_fc0/w"
    input: "model/pi_fc1/b"
    input: "model/pi_fc1/w"
    input: "model/q/b"
    input: "model/q/w"
    input: "model/vf/b"
    input: "model/vf/w"
    input: "model/vf_fc0/b"
    input: "model/vf_fc0/w"
    input: "model/vf_fc1/b"
    input: "model/vf_fc1/w"
    attr {
      key: "dtypes"
      value {
        list {
          type: DT_FLOAT
          type: DT_FLOAT
          type: DT_FLOAT
          type: DT_FLOAT
          type: DT_FLOAT
          type: DT_FLOAT
          type: DT_FLOAT
          type: DT_FLOAT
          type: DT_FLOAT
          type: DT_FLOAT
          type: DT_FLOAT
          type: DT_FLOAT
          type: DT_FLOAT
          type: DT_FLOAT
          type: DT_FLOAT
        }
      }
    }
  }
  node {
    name: "save/control_dependency"
    op: "Identity"
    input: "save/Const"
    input: "^save/SaveV2"
    attr {
      key: "T"
      value {
        type: DT_STRING
      }
    }
    attr {
      key: "_class"
      value {
        list {
          s: "loc:@save/Const"
        }
      }
    }
    attr {
      key: "_output_shapes"
      value {
        list {
          shape {
          }
        }
      }
    }
  }
  node {
    name: "save/RestoreV2/tensor_names"
    op: "Const"
    device: "/device:CPU:0"
    attr {
      key: "_output_shapes"
      value {
        list {
          shape {
            dim {
              size: 15
            }
          }
        }
      }
    }
    attr {
      key: "dtype"
      value {
        type: DT_STRING
      }
    }
    attr {
      key: "value"
      value {
        tensor {
          dtype: DT_STRING
          tensor_shape {
            dim {
              size: 15
            }
          }
          string_val: "model/pi/b"
          string_val: "model/pi/logstd"
          string_val: "model/pi/w"
          string_val: "model/pi_fc0/b"
          string_val: "model/pi_fc0/w"
          string_val: "model/pi_fc1/b"
          string_val: "model/pi_fc1/w"
          string_val: "model/q/b"
          string_val: "model/q/w"
          string_val: "model/vf/b"
          string_val: "model/vf/w"
          string_val: "model/vf_fc0/b"
          string_val: "model/vf_fc0/w"
          string_val: "model/vf_fc1/b"
          string_val: "model/vf_fc1/w"
        }
      }
    }
  }
  node {
    name: "save/RestoreV2/shape_and_slices"
    op: "Const"
    device: "/device:CPU:0"
    attr {
      key: "_output_shapes"
      value {
        list {
          shape {
            dim {
              size: 15
            }
          }
        }
      }
    }
    attr {
      key: "dtype"
      value {
        type: DT_STRING
      }
    }
    attr {
      key: "value"
      value {
        tensor {
          dtype: DT_STRING
          tensor_shape {
            dim {
              size: 15
            }
          }
          string_val: ""
          string_val: ""
          string_val: ""
          string_val: ""
          string_val: ""
          string_val: ""
          string_val: ""
          string_val: ""
          string_val: ""
          string_val: ""
          string_val: ""
          string_val: ""
          string_val: ""
          string_val: ""
          string_val: ""
        }
      }
    }
  }
  node {
    name: "save/RestoreV2"
    op: "RestoreV2"
    input: "save/Const"
    input: "save/RestoreV2/tensor_names"
    input: "save/RestoreV2/shape_and_slices"
    device: "/device:CPU:0"
    attr {
      key: "_output_shapes"
      value {
        list {
          shape {
            unknown_rank: true
          }
          shape {
            unknown_rank: true
          }
          shape {
            unknown_rank: true
          }
          shape {
            unknown_rank: true
          }
          shape {
            unknown_rank: true
          }
          shape {
            unknown_rank: true
          }
          shape {
            unknown_rank: true
          }
          shape {
            unknown_rank: true
          }
          shape {
            unknown_rank: true
          }
          shape {
            unknown_rank: true
          }
          shape {
            unknown_rank: true
          }
          shape {
            unknown_rank: true
          }
          shape {
            unknown_rank: true
          }
          shape {
            unknown_rank: true
          }
          shape {
            unknown_rank: true
          }
        }
      }
    }
    attr {
      key: "dtypes"
      value {
        list {
          type: DT_FLOAT
          type: DT_FLOAT
          type: DT_FLOAT
          type: DT_FLOAT
          type: DT_FLOAT
          type: DT_FLOAT
          type: DT_FLOAT
          type: DT_FLOAT
          type: DT_FLOAT
          type: DT_FLOAT
          type: DT_FLOAT
          type: DT_FLOAT
          type: DT_FLOAT
          type: DT_FLOAT
          type: DT_FLOAT
        }
      }
    }
  }
  node {
    name: "save/Assign"
    op: "Assign"
    input: "model/pi/b"
    input: "save/RestoreV2"
    attr {
      key: "T"
      value {
        type: DT_FLOAT
      }
    }
    attr {
      key: "_class"
      value {
        list {
          s: "loc:@model/pi/b"
        }
      }
    }
    attr {
      key: "_output_shapes"
      value {
        list {
          shape {
            dim {
              size: 18
            }
          }
        }
      }
    }
    attr {
      key: "use_locking"
      value {
        b: true
      }
    }
    attr {
      key: "validate_shape"
      value {
        b: true
      }
    }
  }
  node {
    name: "save/Assign_1"
    op: "Assign"
    input: "model/pi/logstd"
    input: "save/RestoreV2:1"
    attr {
      key: "T"
      value {
        type: DT_FLOAT
      }
    }
    attr {
      key: "_class"
      value {
        list {
          s: "loc:@model/pi/logstd"
        }
      }
    }
    attr {
      key: "_output_shapes"
      value {
        list {
          shape {
            dim {
              size: 1
            }
            dim {
              size: 18
            }
          }
        }
      }
    }
    attr {
      key: "use_locking"
      value {
        b: true
      }
    }
    attr {
      key: "validate_shape"
      value {
        b: true
      }
    }
  }
  node {
    name: "save/Assign_2"
    op: "Assign"
    input: "model/pi/w"
    input: "save/RestoreV2:2"
    attr {
      key: "T"
      value {
        type: DT_FLOAT
      }
    }
    attr {
      key: "_class"
      value {
        list {
          s: "loc:@model/pi/w"
        }
      }
    }
    attr {
      key: "_output_shapes"
      value {
        list {
          shape {
            dim {
              size: 2
            }
            dim {
              size: 18
            }
          }
        }
      }
    }
    attr {
      key: "use_locking"
      value {
        b: true
      }
    }
    attr {
      key: "validate_shape"
      value {
        b: true
      }
    }
  }
  node {
    name: "save/Assign_3"
    op: "Assign"
    input: "model/pi_fc0/b"
    input: "save/RestoreV2:3"
    attr {
      key: "T"
      value {
        type: DT_FLOAT
      }
    }
    attr {
      key: "_class"
      value {
        list {
          s: "loc:@model/pi_fc0/b"
        }
      }
    }
    attr {
      key: "_output_shapes"
      value {
        list {
          shape {
            dim {
              size: 2
            }
          }
        }
      }
    }
    attr {
      key: "use_locking"
      value {
        b: true
      }
    }
    attr {
      key: "validate_shape"
      value {
        b: true
      }
    }
  }
  node {
    name: "save/Assign_4"
    op: "Assign"
    input: "model/pi_fc0/w"
    input: "save/RestoreV2:4"
    attr {
      key: "T"
      value {
        type: DT_FLOAT
      }
    }
    attr {
      key: "_class"
      value {
        list {
          s: "loc:@model/pi_fc0/w"
        }
      }
    }
    attr {
      key: "_output_shapes"
      value {
        list {
          shape {
            dim {
              size: 1
            }
            dim {
              size: 2
            }
          }
        }
      }
    }
    attr {
      key: "use_locking"
      value {
        b: true
      }
    }
    attr {
      key: "validate_shape"
      value {
        b: true
      }
    }
  }
  node {
    name: "save/Assign_5"
    op: "Assign"
    input: "model/pi_fc1/b"
    input: "save/RestoreV2:5"
    attr {
      key: "T"
      value {
        type: DT_FLOAT
      }
    }
    attr {
      key: "_class"
      value {
        list {
          s: "loc:@model/pi_fc1/b"
        }
      }
    }
    attr {
      key: "_output_shapes"
      value {
        list {
          shape {
            dim {
              size: 2
            }
          }
        }
      }
    }
    attr {
      key: "use_locking"
      value {
        b: true
      }
    }
    attr {
      key: "validate_shape"
      value {
        b: true
      }
    }
  }
  node {
    name: "save/Assign_6"
    op: "Assign"
    input: "model/pi_fc1/w"
    input: "save/RestoreV2:6"
    attr {
      key: "T"
      value {
        type: DT_FLOAT
      }
    }
    attr {
      key: "_class"
      value {
        list {
          s: "loc:@model/pi_fc1/w"
        }
      }
    }
    attr {
      key: "_output_shapes"
      value {
        list {
          shape {
            dim {
              size: 2
            }
            dim {
              size: 2
            }
          }
        }
      }
    }
    attr {
      key: "use_locking"
      value {
        b: true
      }
    }
    attr {
      key: "validate_shape"
      value {
        b: true
      }
    }
  }
  node {
    name: "save/Assign_7"
    op: "Assign"
    input: "model/q/b"
    input: "save/RestoreV2:7"
    attr {
      key: "T"
      value {
        type: DT_FLOAT
      }
    }
    attr {
      key: "_class"
      value {
        list {
          s: "loc:@model/q/b"
        }
      }
    }
    attr {
      key: "_output_shapes"
      value {
        list {
          shape {
            dim {
              size: 18
            }
          }
        }
      }
    }
    attr {
      key: "use_locking"
      value {
        b: true
      }
    }
    attr {
      key: "validate_shape"
      value {
        b: true
      }
    }
  }
  node {
    name: "save/Assign_8"
    op: "Assign"
    input: "model/q/w"
    input: "save/RestoreV2:8"
    attr {
      key: "T"
      value {
        type: DT_FLOAT
      }
    }
    attr {
      key: "_class"
      value {
        list {
          s: "loc:@model/q/w"
        }
      }
    }
    attr {
      key: "_output_shapes"
      value {
        list {
          shape {
            dim {
              size: 2
            }
            dim {
              size: 18
            }
          }
        }
      }
    }
    attr {
      key: "use_locking"
      value {
        b: true
      }
    }
    attr {
      key: "validate_shape"
      value {
        b: true
      }
    }
  }
  node {
    name: "save/Assign_9"
    op: "Assign"
    input: "model/vf/b"
    input: "save/RestoreV2:9"
    attr {
      key: "T"
      value {
        type: DT_FLOAT
      }
    }
    attr {
      key: "_class"
      value {
        list {
          s: "loc:@model/vf/b"
        }
      }
    }
    attr {
      key: "_output_shapes"
      value {
        list {
          shape {
            dim {
              size: 1
            }
          }
        }
      }
    }
    attr {
      key: "use_locking"
      value {
        b: true
      }
    }
    attr {
      key: "validate_shape"
      value {
        b: true
      }
    }
  }
  node {
    name: "save/Assign_10"
    op: "Assign"
    input: "model/vf/w"
    input: "save/RestoreV2:10"
    attr {
      key: "T"
      value {
        type: DT_FLOAT
      }
    }
    attr {
      key: "_class"
      value {
        list {
          s: "loc:@model/vf/w"
        }
      }
    }
    attr {
      key: "_output_shapes"
      value {
        list {
          shape {
            dim {
              size: 2
            }
            dim {
              size: 1
            }
          }
        }
      }
    }
    attr {
      key: "use_locking"
      value {
        b: true
      }
    }
    attr {
      key: "validate_shape"
      value {
        b: true
      }
    }
  }
  node {
    name: "save/Assign_11"
    op: "Assign"
    input: "model/vf_fc0/b"
    input: "save/RestoreV2:11"
    attr {
      key: "T"
      value {
        type: DT_FLOAT
      }
    }
    attr {
      key: "_class"
      value {
        list {
          s: "loc:@model/vf_fc0/b"
        }
      }
    }
    attr {
      key: "_output_shapes"
      value {
        list {
          shape {
            dim {
              size: 2
            }
          }
        }
      }
    }
    attr {
      key: "use_locking"
      value {
        b: true
      }
    }
    attr {
      key: "validate_shape"
      value {
        b: true
      }
    }
  }
  node {
    name: "save/Assign_12"
    op: "Assign"
    input: "model/vf_fc0/w"
    input: "save/RestoreV2:12"
    attr {
      key: "T"
      value {
        type: DT_FLOAT
      }
    }
    attr {
      key: "_class"
      value {
        list {
          s: "loc:@model/vf_fc0/w"
        }
      }
    }
    attr {
      key: "_output_shapes"
      value {
        list {
          shape {
            dim {
              size: 1
            }
            dim {
              size: 2
            }
          }
        }
      }
    }
    attr {
      key: "use_locking"
      value {
        b: true
      }
    }
    attr {
      key: "validate_shape"
      value {
        b: true
      }
    }
  }
  node {
    name: "save/Assign_13"
    op: "Assign"
    input: "model/vf_fc1/b"
    input: "save/RestoreV2:13"
    attr {
      key: "T"
      value {
        type: DT_FLOAT
      }
    }
    attr {
      key: "_class"
      value {
        list {
          s: "loc:@model/vf_fc1/b"
        }
      }
    }
    attr {
      key: "_output_shapes"
      value {
        list {
          shape {
            dim {
              size: 2
            }
          }
        }
      }
    }
    attr {
      key: "use_locking"
      value {
        b: true
      }
    }
    attr {
      key: "validate_shape"
      value {
        b: true
      }
    }
  }
  node {
    name: "save/Assign_14"
    op: "Assign"
    input: "model/vf_fc1/w"
    input: "save/RestoreV2:14"
    attr {
      key: "T"
      value {
        type: DT_FLOAT
      }
    }
    attr {
      key: "_class"
      value {
        list {
          s: "loc:@model/vf_fc1/w"
        }
      }
    }
    attr {
      key: "_output_shapes"
      value {
        list {
          shape {
            dim {
              size: 2
            }
            dim {
              size: 2
            }
          }
        }
      }
    }
    attr {
      key: "use_locking"
      value {
        b: true
      }
    }
    attr {
      key: "validate_shape"
      value {
        b: true
      }
    }
  }
  node {
    name: "save/restore_all"
    op: "NoOp"
    input: "^save/Assign"
    input: "^save/Assign_1"
    input: "^save/Assign_10"
    input: "^save/Assign_11"
    input: "^save/Assign_12"
    input: "^save/Assign_13"
    input: "^save/Assign_14"
    input: "^save/Assign_2"
    input: "^save/Assign_3"
    input: "^save/Assign_4"
    input: "^save/Assign_5"
    input: "^save/Assign_6"
    input: "^save/Assign_7"
    input: "^save/Assign_8"
    input: "^save/Assign_9"
  }
  versions {
    producer: 38
  }
}
saver_def {
  filename_tensor_name: "save/Const:0"
  save_tensor_name: "save/control_dependency:0"
  restore_op_name: "save/restore_all"
  max_to_keep: 5
  keep_checkpoint_every_n_hours: 10000.0
  version: V2
}
collection_def {
  key: "summaries"
  value {
    node_list {
      value: "loss/entropy_loss:0"
      value: "loss/policy_gradient_loss:0"
      value: "loss/value_function_loss:0"
      value: "loss/approximate_kullback-leibler:0"
      value: "loss/clip_factor:0"
      value: "loss/loss:0"
      value: "input_info/discounted_rewards:0"
      value: "input_info/learning_rate:0"
      value: "input_info/advantage:0"
      value: "input_info/clip_range:0"
      value: "input_info/clip_range_vf:0"
      value: "input_info/old_neglog_action_probabilty:0"
      value: "input_info/old_value_pred:0"
    }
  }
}
collection_def {
  key: "train_op"
  value {
    node_list {
      value: "ppo2/_train"
    }
  }
}
collection_def {
  key: "trainable_variables"
  value {
    bytes_list {
      value: "\n\020model/pi_fc0/w:0\022\025model/pi_fc0/w/Assign\032\025model/pi_fc0/w/read:02*model/pi_fc0/w/Initializer/initial_value:08\001"
      value: "\n\020model/pi_fc0/b:0\022\025model/pi_fc0/b/Assign\032\025model/pi_fc0/b/read:02\"model/pi_fc0/b/Initializer/Const:08\001"
      value: "\n\020model/vf_fc0/w:0\022\025model/vf_fc0/w/Assign\032\025model/vf_fc0/w/read:02*model/vf_fc0/w/Initializer/initial_value:08\001"
      value: "\n\020model/vf_fc0/b:0\022\025model/vf_fc0/b/Assign\032\025model/vf_fc0/b/read:02\"model/vf_fc0/b/Initializer/Const:08\001"
      value: "\n\020model/pi_fc1/w:0\022\025model/pi_fc1/w/Assign\032\025model/pi_fc1/w/read:02*model/pi_fc1/w/Initializer/initial_value:08\001"
      value: "\n\020model/pi_fc1/b:0\022\025model/pi_fc1/b/Assign\032\025model/pi_fc1/b/read:02\"model/pi_fc1/b/Initializer/Const:08\001"
      value: "\n\020model/vf_fc1/w:0\022\025model/vf_fc1/w/Assign\032\025model/vf_fc1/w/read:02*model/vf_fc1/w/Initializer/initial_value:08\001"
      value: "\n\020model/vf_fc1/b:0\022\025model/vf_fc1/b/Assign\032\025model/vf_fc1/b/read:02\"model/vf_fc1/b/Initializer/Const:08\001"
      value: "\n\014model/vf/w:0\022\021model/vf/w/Assign\032\021model/vf/w/read:02&model/vf/w/Initializer/initial_value:08\001"
      value: "\n\014model/vf/b:0\022\021model/vf/b/Assign\032\021model/vf/b/read:02\036model/vf/b/Initializer/Const:08\001"
      value: "\n\014model/pi/w:0\022\021model/pi/w/Assign\032\021model/pi/w/read:02&model/pi/w/Initializer/initial_value:08\001"
      value: "\n\014model/pi/b:0\022\021model/pi/b/Assign\032\021model/pi/b/read:02\036model/pi/b/Initializer/Const:08\001"
      value: "\n\021model/pi/logstd:0\022\026model/pi/logstd/Assign\032\026model/pi/logstd/read:02#model/pi/logstd/Initializer/zeros:08\001"
      value: "\n\013model/q/w:0\022\020model/q/w/Assign\032\020model/q/w/read:02%model/q/w/Initializer/initial_value:08\001"
      value: "\n\013model/q/b:0\022\020model/q/b/Assign\032\020model/q/b/read:02\035model/q/b/Initializer/Const:08\001"
    }
  }
}
collection_def {
  key: "variables"
  value {
    bytes_list {
      value: "\n\020model/pi_fc0/w:0\022\025model/pi_fc0/w/Assign\032\025model/pi_fc0/w/read:02*model/pi_fc0/w/Initializer/initial_value:08\001"
      value: "\n\020model/pi_fc0/b:0\022\025model/pi_fc0/b/Assign\032\025model/pi_fc0/b/read:02\"model/pi_fc0/b/Initializer/Const:08\001"
      value: "\n\020model/vf_fc0/w:0\022\025model/vf_fc0/w/Assign\032\025model/vf_fc0/w/read:02*model/vf_fc0/w/Initializer/initial_value:08\001"
      value: "\n\020model/vf_fc0/b:0\022\025model/vf_fc0/b/Assign\032\025model/vf_fc0/b/read:02\"model/vf_fc0/b/Initializer/Const:08\001"
      value: "\n\020model/pi_fc1/w:0\022\025model/pi_fc1/w/Assign\032\025model/pi_fc1/w/read:02*model/pi_fc1/w/Initializer/initial_value:08\001"
      value: "\n\020model/pi_fc1/b:0\022\025model/pi_fc1/b/Assign\032\025model/pi_fc1/b/read:02\"model/pi_fc1/b/Initializer/Const:08\001"
      value: "\n\020model/vf_fc1/w:0\022\025model/vf_fc1/w/Assign\032\025model/vf_fc1/w/read:02*model/vf_fc1/w/Initializer/initial_value:08\001"
      value: "\n\020model/vf_fc1/b:0\022\025model/vf_fc1/b/Assign\032\025model/vf_fc1/b/read:02\"model/vf_fc1/b/Initializer/Const:08\001"
      value: "\n\014model/vf/w:0\022\021model/vf/w/Assign\032\021model/vf/w/read:02&model/vf/w/Initializer/initial_value:08\001"
      value: "\n\014model/vf/b:0\022\021model/vf/b/Assign\032\021model/vf/b/read:02\036model/vf/b/Initializer/Const:08\001"
      value: "\n\014model/pi/w:0\022\021model/pi/w/Assign\032\021model/pi/w/read:02&model/pi/w/Initializer/initial_value:08\001"
      value: "\n\014model/pi/b:0\022\021model/pi/b/Assign\032\021model/pi/b/read:02\036model/pi/b/Initializer/Const:08\001"
      value: "\n\021model/pi/logstd:0\022\026model/pi/logstd/Assign\032\026model/pi/logstd/read:02#model/pi/logstd/Initializer/zeros:08\001"
      value: "\n\013model/q/w:0\022\020model/q/w/Assign\032\020model/q/w/read:02%model/q/w/Initializer/initial_value:08\001"
      value: "\n\013model/q/b:0\022\020model/q/b/Assign\032\020model/q/b/read:02\035model/q/b/Initializer/Const:08\001"
      value: "\n\rbeta1_power:0\022\022beta1_power/Assign\032\022beta1_power/read:02\033beta1_power/initial_value:0"
      value: "\n\rbeta2_power:0\022\022beta2_power/Assign\032\022beta2_power/read:02\033beta2_power/initial_value:0"
      value: "\n\025model/pi_fc0/w/Adam:0\022\032model/pi_fc0/w/Adam/Assign\032\032model/pi_fc0/w/Adam/read:02\'model/pi_fc0/w/Adam/Initializer/zeros:0"
      value: "\n\027model/pi_fc0/w/Adam_1:0\022\034model/pi_fc0/w/Adam_1/Assign\032\034model/pi_fc0/w/Adam_1/read:02)model/pi_fc0/w/Adam_1/Initializer/zeros:0"
      value: "\n\025model/pi_fc0/b/Adam:0\022\032model/pi_fc0/b/Adam/Assign\032\032model/pi_fc0/b/Adam/read:02\'model/pi_fc0/b/Adam/Initializer/zeros:0"
      value: "\n\027model/pi_fc0/b/Adam_1:0\022\034model/pi_fc0/b/Adam_1/Assign\032\034model/pi_fc0/b/Adam_1/read:02)model/pi_fc0/b/Adam_1/Initializer/zeros:0"
      value: "\n\025model/vf_fc0/w/Adam:0\022\032model/vf_fc0/w/Adam/Assign\032\032model/vf_fc0/w/Adam/read:02\'model/vf_fc0/w/Adam/Initializer/zeros:0"
      value: "\n\027model/vf_fc0/w/Adam_1:0\022\034model/vf_fc0/w/Adam_1/Assign\032\034model/vf_fc0/w/Adam_1/read:02)model/vf_fc0/w/Adam_1/Initializer/zeros:0"
      value: "\n\025model/vf_fc0/b/Adam:0\022\032model/vf_fc0/b/Adam/Assign\032\032model/vf_fc0/b/Adam/read:02\'model/vf_fc0/b/Adam/Initializer/zeros:0"
      value: "\n\027model/vf_fc0/b/Adam_1:0\022\034model/vf_fc0/b/Adam_1/Assign\032\034model/vf_fc0/b/Adam_1/read:02)model/vf_fc0/b/Adam_1/Initializer/zeros:0"
      value: "\n\025model/pi_fc1/w/Adam:0\022\032model/pi_fc1/w/Adam/Assign\032\032model/pi_fc1/w/Adam/read:02\'model/pi_fc1/w/Adam/Initializer/zeros:0"
      value: "\n\027model/pi_fc1/w/Adam_1:0\022\034model/pi_fc1/w/Adam_1/Assign\032\034model/pi_fc1/w/Adam_1/read:02)model/pi_fc1/w/Adam_1/Initializer/zeros:0"
      value: "\n\025model/pi_fc1/b/Adam:0\022\032model/pi_fc1/b/Adam/Assign\032\032model/pi_fc1/b/Adam/read:02\'model/pi_fc1/b/Adam/Initializer/zeros:0"
      value: "\n\027model/pi_fc1/b/Adam_1:0\022\034model/pi_fc1/b/Adam_1/Assign\032\034model/pi_fc1/b/Adam_1/read:02)model/pi_fc1/b/Adam_1/Initializer/zeros:0"
      value: "\n\025model/vf_fc1/w/Adam:0\022\032model/vf_fc1/w/Adam/Assign\032\032model/vf_fc1/w/Adam/read:02\'model/vf_fc1/w/Adam/Initializer/zeros:0"
      value: "\n\027model/vf_fc1/w/Adam_1:0\022\034model/vf_fc1/w/Adam_1/Assign\032\034model/vf_fc1/w/Adam_1/read:02)model/vf_fc1/w/Adam_1/Initializer/zeros:0"
      value: "\n\025model/vf_fc1/b/Adam:0\022\032model/vf_fc1/b/Adam/Assign\032\032model/vf_fc1/b/Adam/read:02\'model/vf_fc1/b/Adam/Initializer/zeros:0"
      value: "\n\027model/vf_fc1/b/Adam_1:0\022\034model/vf_fc1/b/Adam_1/Assign\032\034model/vf_fc1/b/Adam_1/read:02)model/vf_fc1/b/Adam_1/Initializer/zeros:0"
      value: "\n\021model/vf/w/Adam:0\022\026model/vf/w/Adam/Assign\032\026model/vf/w/Adam/read:02#model/vf/w/Adam/Initializer/zeros:0"
      value: "\n\023model/vf/w/Adam_1:0\022\030model/vf/w/Adam_1/Assign\032\030model/vf/w/Adam_1/read:02%model/vf/w/Adam_1/Initializer/zeros:0"
      value: "\n\021model/vf/b/Adam:0\022\026model/vf/b/Adam/Assign\032\026model/vf/b/Adam/read:02#model/vf/b/Adam/Initializer/zeros:0"
      value: "\n\023model/vf/b/Adam_1:0\022\030model/vf/b/Adam_1/Assign\032\030model/vf/b/Adam_1/read:02%model/vf/b/Adam_1/Initializer/zeros:0"
      value: "\n\021model/pi/w/Adam:0\022\026model/pi/w/Adam/Assign\032\026model/pi/w/Adam/read:02#model/pi/w/Adam/Initializer/zeros:0"
      value: "\n\023model/pi/w/Adam_1:0\022\030model/pi/w/Adam_1/Assign\032\030model/pi/w/Adam_1/read:02%model/pi/w/Adam_1/Initializer/zeros:0"
      value: "\n\021model/pi/b/Adam:0\022\026model/pi/b/Adam/Assign\032\026model/pi/b/Adam/read:02#model/pi/b/Adam/Initializer/zeros:0"
      value: "\n\023model/pi/b/Adam_1:0\022\030model/pi/b/Adam_1/Assign\032\030model/pi/b/Adam_1/read:02%model/pi/b/Adam_1/Initializer/zeros:0"
      value: "\n\026model/pi/logstd/Adam:0\022\033model/pi/logstd/Adam/Assign\032\033model/pi/logstd/Adam/read:02(model/pi/logstd/Adam/Initializer/zeros:0"
      value: "\n\030model/pi/logstd/Adam_1:0\022\035model/pi/logstd/Adam_1/Assign\032\035model/pi/logstd/Adam_1/read:02*model/pi/logstd/Adam_1/Initializer/zeros:0"
    }
  }
}
